saved_models/dec.pt (torch, 185680 bytes, 8 tensors)

fc1.weight f4 [64, 4]
000000 7c 0f ed 3e a6 ba cf be 09 03 79 be 26 76 b9 3d
       0.46300876 -0.4057209 -0.24317564 0.09055738
000010 a7 92 df 3e f2 d5 35 3e 74 b5 03 be 40 c2 3e bd
       0.43666574 0.17757395 -0.12862188 -0.04657197
000020 45 3b 3b be 89 95 2c bc 50 10 e4 3e 9f 12 6b be
       -0.18284328 -0.010533699 0.44543695 -0.22956322
000030 81 23 c5 3e 7e fb f7 3d 25 28 c0 3e bc b9 ec bc
       0.3850365 0.12108515 0.37530628 -0.028897159
000040 44 57 ef 3e 98 d7 9a be f5 e2 28 3d c4 5d 0f 3f
       0.46746266 -0.3024261 0.041232068 0.5600245
000050 d5 c1 10 bf 30 9e 4c 3e 5b 6f 72 3e f3 58 c8 3e
       -0.56545764 0.19982219 0.23675291 0.39130363
000060 ca 05 b5 3d c2 11 b7 3e 1a c6 05 bf b6 0b 9b 3e
       0.08838995 0.35755736 -0.52255404 0.30282372
000070 ce fb 26 3e c7 bb f3 3e ff 54 8c 3e ef 5c 8a be
       0.16306993 0.476042 0.27408597 -0.27024028
000080 f4 20 ca be 24 1e ad be 5c 26 21 3e 26 e8 aa be
       -0.39478266 -0.33812058 0.15737289 -0.3338024
000090 db 48 d3 3e d0 dc 75 3e 35 be db 3d 9f f2 2d be
       0.41266522 0.24010015 0.107296385 -0.16987084
0000a0 40 62 20 bf b8 70 4c 3e e3 08 24 bf d1 ef 07 be
       -0.6264992 0.19964874 -0.6407606 -0.13275076
0000b0 83 68 c2 3e d1 2b e1 be 8a f8 6f bd 1b 83 18 be
       0.3797036 -0.43978742 -0.058586635 -0.14893763
0000c0 fa 78 a6 be 68 9a 70 3e bc 7a 7a be ee f3 c8 be
       -0.32514173 0.23496401 -0.24460882 -0.39248604
0000d0 b2 4f 12 bd 21 61 f3 3d 45 70 c1 3e c2 c2 61 be
       -0.035720535 0.1188376 0.37780967 -0.2204695
0000e0 3d d1 35 3d 50 e9 05 3e 77 f6 8f 3e 4a 70 ee be
       0.044389 0.13077283 0.28117725 -0.46570045
0000f0 eb d9 1e 3b c6 77 07 bf 1d 21 9c 3e c0 22 29 3f
       0.0024238776 -0.52917135 0.30494013 0.6606865
000100 a9 6f 08 3f 31 a8 20 bd b4 b7 ba be 43 4b 1b 3f
       0.5329538 -0.0392229 -0.3646828 0.60661715
000110 db e6 9f ba ca 27 b1 3d 2a 3f cd bc f4 df a3 3d
       -0.0012199538 0.08650167 -0.025054533 0.080017
000120 d2 15 2f bf 3c ab 10 be a1 44 1d bf 5a 89 86 3e
       -0.6839267 -0.1412782 -0.61432844 0.26276666
000130 4c f1 b5 3e aa 8a 63 3d 64 65 7e be 3a 8f 99 be
       0.35535657 0.055552162 -0.24843365 -0.29992086
000140 c4 77 82 be f2 29 69 3d f7 48 01 3f e4 f8 83 be
       -0.25482 0.056924768 0.5050196 -0.25775826
000150 8d 6b 12 bf 40 4e e2 be 6e 34 ed be 95 a5 f5 3e
       -0.5719536 -0.44200325 -0.46329063 0.47977892
000160 c7 20 e9 3e 98 78 cc be 1b 57 06 3f 85 05 c1 be
       0.4553282 -0.39935756 0.5247666 -0.37699524
000170 6e 36 18 3f 98 06 6e be 25 39 b4 be 79 63 40 be
       0.59458053 -0.23244703 -0.35199848 -0.18787946
000180 52 fe 88 3e a3 2b 2d bd 28 ac a0 3e e1 a6 b4 be
       0.2675653 -0.042277943 0.31381345 -0.35283569
000190 6a 0a 9b 3e a0 00 12 bf cb dc 41 be 91 c9 19 3f
       0.30281383 -0.57032204 -0.18931882 0.6007319
0001a0 b1 56 84 3e bd 67 d0 3b f8 2d ca 3e dd 75 89 bd
       0.2584739 0.006360023 0.39488196 -0.06711934
0001b0 05 df fb 3e 1d 8e 13 3f 75 13 b8 be 41 8a e1 be
       0.49193588 0.5763872 -0.35952345 -0.44050792
0001c0 ef 9f cc 3e 42 e1 0f bf a7 eb 8d 3e 04 58 40 bd
       0.3996577 -0.5620309 0.2771885 -0.04695894
0001d0 0f ed 68 3d 0c 88 97 3e 58 3c a2 bd 88 1b 1f 3f
       0.0568667 0.29595983 -0.07921666 0.62151384
0001e0 ae 52 5d be a3 53 4e 3e 8e 27 a6 be b7 fe 0b 3f
       -0.21613571 0.20149092 -0.32452053 0.5468554
0001f0 41 1a 59 be f0 32 0a 3e 6e 68 8a 3e 7b a6 95 3e
       -0.21201421 0.13495994 0.270328 0.29228577
000200 cf 5e 43 be bb 36 03 bf 15 14 28 3e 6c c5 07 3e
       -0.19079135 -0.5125539 0.1641391 0.13258904
000210 01 b8 9d 3e fe 75 5e be 8f d4 52 be ce 3d 8e be
       0.30804446 -0.21724698 -0.20588897 -0.27781528
000220 40 b1 8f bc 70 48 58 3d 68 15 15 be 3a 54 ea be
       -0.017540574 0.052803457 -0.14558947 -0.45767385
000230 79 f4 c1 3e cd ab 42 3d 4b bc 30 bc 53 27 bd bd
       0.3788183 0.047527123 -0.01078708 -0.09236016
000240 a5 47 80 3e fd d1 0a 3f 82 8c 2f bd fb d0 91 be
       0.2505466 0.54226667 -0.042858608 -0.28479752
000250 93 17 58 3e 78 05 0a 3f df 57 a7 3e b4 7f 74 be
       0.21102743 0.53914595 0.32684228 -0.2387684
000260 04 a2 9d bd a7 74 d5 3e f8 02 b7 3e d1 e2 0b 3f
       -0.07696918 0.4169056 0.35744452 0.5464297
000270 8b 45 da 3e 76 9d 2d 3e 7b 92 e0 3e d9 32 a4 be
       0.42631182 0.16954598 0.43861756 -0.32070044
000280 80 2a 76 be ac 1f e6 be e4 29 cf bd 17 fa da 3e
       -0.2403965 -0.4494604 -0.10115412 0.42768928
000290 8a 3c 2f 3e ab 1a 86 3d 09 e5 3e be fa 89 f0 3e
       0.17112938 0.06548055 -0.18642057 0.46980268
0002a0 48 a9 5e be c2 56 bd 3e 80 79 f1 be c8 03 b3 be
       -0.21744263 0.36980253 -0.4716301 -0.34963822
0002b0 67 80 b7 3e 51 40 bb bd 65 1f d2 bd f6 9c fe 3e
       0.3584015 -0.09143127 -0.10259894 0.49729127
0002c0 fc 20 d8 be cc 69 df 3e d0 53 54 be 40 a1 73 3d
       -0.42212665 0.43635404 -0.20735097 0.05947995
0002d0 c4 78 6e 3d 62 8d f3 3e 8b 47 ed 3e 5e 0b c7 3e
       0.05822064 0.47568804 0.46343645 0.3887586
0002e0 59 d7 bf be 1e 04 ef be 2e 73 35 be 87 74 05 3f
       -0.37468985 -0.4668283 -0.17719719 0.5213093
0002f0 36 66 cc bd 3f 6f c5 3e 26 c8 ff 3e c3 a9 1b bd
       -0.09980433 0.38561437 0.4995739 -0.038003694
000300 2a 1b 9a be c0 92 a8 3d 82 c3 c6 be e8 08 9e bd
       -0.3009885 0.08231115 -0.38821036 -0.077165425
000310 be 16 89 be 92 01 ab 3e 3c b7 89 be 48 75 61 be
       -0.26775163 0.33399636 -0.2689761 -0.22017395
000320 d5 7a f4 be 62 ba 04 3f c7 84 d4 bd b3 6a 30 3e
       -0.47749963 0.518469 -0.10376888 0.17228203
000330 c8 3b 00 3f 7a fe 1c be e1 31 9b be 98 5c db be
       0.5009122 -0.1533145 -0.30311492 -0.4284408
000340 eb 41 54 be 28 22 b0 3d dd de 7c be d2 72 c6 be
       -0.2072827 0.08600265 -0.2469439 -0.38759476
000350 d8 94 e2 be ce 48 68 3e 86 1a 76 be 84 47 08 3f
       -0.44254184 0.22684023 -0.24033555 0.53234124
000360 eb 7f a7 be f9 c1 df 3c 3f 99 b7 3d 4e 8d 9d 3e
       -0.3271478 0.027314173 0.08964776 0.3077187
000370 f7 57 58 3b 9f b3 f8 3e 1a 3b f0 3d 45 24 27 be
       0.0033011416 0.4857454 0.11730023 -0.1632243
000380 3e a7 69 be ed e2 a6 be 63 15 1c 3f 74 f1 8d 3e
       -0.22817704 -0.32595006 0.60970134 0.27723277
000390 e7 d5 a3 be 1e ef 65 3d 5f 13 a6 3e 0f 7f a1 be
       -0.31999132 0.056136243 0.32436654 -0.3154225
0003a0 9c ea 2a be b8 7e c8 bd e8 fc 61 be 00 91 7d bd
       -0.16691059 -0.09789795 -0.22069132 -0.06190586
0003b0 48 72 99 be 7a 3f b1 3e 9a d7 f0 be 28 53 0c 3f
       -0.29970002 0.3461874 -0.4703949 0.54814386
0003c0 9b e4 ed 3b 18 bb 2e 3e e8 c2 d2 3e de 51 05 bf
       0.007259918 0.17063558 0.41164327 -0.52078044
0003d0 48 10 09 be c5 4b 8f be 7f 7b 13 be d6 fa 1f 3f
       -0.13385117 -0.27987495 -0.14402579 0.6249212
0003e0 ea 77 04 3f 37 48 1f 3f 2b 52 3c 3e 12 31 9e bd
       0.51745474 0.62219566 0.1839072 -0.07724203
0003f0 bc a4 01 3f fe cd 6d be 93 4c ed 3e 6d 30 f4 be
       0.5064199 -0.23223111 0.46347484 -0.47693196

fc1.bias f4 [64]
000000 e5 1c 1a 3e 04 54 7a 3e eb 60 04 3f 52 d6 01 3f
       0.15050085 0.24446112 0.51710385 0.5071765
000010 bd 59 d9 3d 11 bb 04 3f af 55 0b 3f 28 46 00 3e
       0.10612819 0.5184794 0.5442762 0.12526762
000020 ce f4 d0 be b1 bf f2 3e 13 e7 09 3f 79 6e fa 3e
       -0.4081177 0.47411874 0.53868216 0.4891241
000030 56 40 aa be 00 c2 15 3f 29 0e aa be 29 e8 49 be
       -0.3325221 0.58499146 -0.33213928 -0.19717468
000040 a8 64 07 bf 53 54 98 be b2 18 20 3e 7a 9d c6 be
       -0.52887964 -0.29751834 0.1563442 -0.3879202
000050 27 61 09 3f 34 0a ae be 35 b8 26 3e 17 fb fc 3e
       0.5366387 -0.3399216 0.16281207 0.49410316
000060 45 64 9a be cb 3b 48 bd eb c6 dd 3e 26 e1 5b 3e
       -0.30154625 -0.048885148 0.43315825 0.21472606
000070 1a b8 8c 3e c9 52 f2 3d d3 a1 9f 3d da e1 3e 3c
       0.27484208 0.11832196 0.077945374 0.011650527
000080 7e 7a 88 3e 34 f7 f7 bd 20 08 49 bd 48 20 ab 3d
       0.26655954 -0.12107697 -0.049080014 0.083557665
000090 01 99 99 be b6 30 ec be 34 f5 b2 3e 07 35 bf 3e
       -0.29999545 -0.46130913 0.349527 0.37345144
0000a0 00 ec 75 be 16 49 b1 3d 20 90 04 be 82 fa 5c be
       -0.24015808 0.08656518 -0.12945604 -0.21579936
0000b0 c8 8c f4 be d8 14 82 3e 92 ef f3 3e 96 b2 93 3e
       -0.47763658 0.25406528 0.47643715 0.28847188
0000c0 0a 80 e3 be 7e 59 a9 be fe 9e 18 3f 35 df 0e 3f
       -0.44433624 -0.3307609 0.596176 0.55809337
0000d0 1e 79 91 3d 44 d0 83 3d 39 7a cf be cb 10 b2 3e
       0.071031794 0.06436208 -0.40522936 0.34778437
0000e0 a9 af 4a be d6 7a 2a 3e 56 58 ed be d2 17 d8 3e
       -0.19793572 0.1664842 -0.46356457 0.42205673
0000f0 6d e1 c0 be 70 76 09 3f af 22 88 be 8b 83 e6 bd
       -0.37671986 0.53696346 -0.2658896 -0.112555586

fc2.weight f4 [128, 64]
000000 b8 b5 1d 3d b0 5c cb bd df 30 37 bc 80 27 0b 3d
       0.03850338 -0.09929788 -0.011181085 0.033973217
000010 23 c1 b5 bd 17 f5 a5 bc ee 10 13 3d 20 d5 4b 3d
       -0.088747285 -0.02025847 0.035904817 0.0497638
000020 a0 9b 98 bc 8c d9 98 3c f0 d2 50 3d 77 c9 9c 3c
       -0.018628895 0.018658422 0.050982416 0.019139035
000030 12 d5 c2 bd 20 cc e2 bd 00 64 45 bb a3 c3 7e bb
       -0.09513296 -0.1107409 -0.003011942 -0.0038873933
000040 4e 86 f7 bd 9c cc 47 bd 3f ea fe bd 10 05 50 3d
       -0.120861635 -0.048779115 -0.12447023 0.050786078
000050 3d 8b 92 bd 28 0e f7 3c 6d 85 ed bd 10 c4 d5 3c
       -0.07155464 0.030158117 -0.115977146 0.026094466
000060 30 0e 26 3d 2d bf 3c bc ba 05 b1 3d bc 3f 58 bd
       0.040540874 -0.011520189 0.086436704 -0.052795157
000070 b1 ac f3 bd 29 86 54 3d f2 7f e7 3c 5c 71 ef bb
       -0.11898173 0.051885758 0.028259251 -0.0073072147
000080 64 92 01 be aa 4c e1 3d ca 7e fd 3d 34 38 6e bd
       -0.126535 0.11000951 0.12377699 -0.05815907
000090 c0 05 05 bc 56 70 87 bd a6 c0 35 3d 00 4e 8f 3d
       -0.008119047 -0.06613223 0.044373177 0.06997299
0000a0 14 bb 19 bd a6 b3 4b 3d dc 42 51 bd af 6e ee 3b
       -0.037531927 0.049731873 -0.051089153 0.007276378
0000b0 9e 01 c0 bd 4e a5 9f bd d3 f4 f6 3d 67 0f 5e 3d
       -0.093753085 -0.07795201 0.12058415 0.054213908
0000c0 0a 8b cd 3d 10 e7 04 3c c8 dd 42 3d f4 0f 0c 3d
       0.10036285 0.00811173 0.04757479 0.0341949
0000d0 b8 b2 dd 3d 2f 42 0c bd be 1c b6 3d e8 f9 4b bd
       0.108251035 -0.034242805 0.08892201 -0.049798876
0000e0 20 89 f6 bc 00 c4 a4 bd 54 fc 3f bd b8 63 89 bd
       -0.030094683 -0.080451965 -0.0468715 -0.06708473
0000f0 a0 44 fa bd 09 a1 32 3d 8c e2 c0 3d b0 74 51 3c
       -0.122201204 0.043610606 0.094182104 0.012784168
000100 99 e7 9b 3d be 65 91 3d c1 f7 1d bd 98 d9 89 bb
       0.07612533 0.07099484 -0.038566355 -0.0042068474
000110 26 58 14 3e 57 c7 fc bd df a3 81 3d 7f 8d 3d 3d
       0.14486751 -0.123427086 0.06330084 0.04627752
000120 58 2b 68 3d 99 4e 3f bd 9b 62 49 bd de f3 27 bc
       0.05668196 -0.046705816 -0.049166303 -0.010251014
000130 c0 a0 29 bd e0 14 a9 3c 7b bf 2d 3e c9 e3 33 3d
       -0.04141307 0.020639837 0.16967575 0.043918405
000140 ab c7 4b 3e a2 3c 92 3d 9a 6b 9b 3d af 93 91 3b
       0.19900386 0.07140471 0.07588883 0.004442654
000150 bf 8f 12 be 68 4a 3d 3e 1e d4 d4 3d 0f 54 57 bd
       -0.14312647 0.18485415 0.10392021 -0.0525704
000160 ad 4f e3 3d f1 4d 73 3d 49 37 24 3c 64 d8 e5 3d
       0.11099181 0.059400503 0.010022947 0.11222914
000170 7b d1 40 3d c1 45 3d 3c 8d 54 aa bd 33 ce cd bd
       0.047074776 0.011552275 -0.08316908 -0.10049095
000180 57 b2 e4 bc 8c e9 e2 3d d0 42 ba bc b6 58 a7 3c
       -0.02791707 0.11079702 -0.022736937 0.020428043
000190 be d5 cc 3d b5 ff 30 3e b7 8b b0 bb 03 ba b7 3d
       0.100017056 0.17285044 -0.005387749 0.08971026
0001a0 9a 1b 53 bd 25 21 6a 3d 46 d1 84 bd 8f e4 06 3e
       -0.051539995 0.057160515 -0.06485228 0.13173126
0001b0 80 6b 20 3b ca a6 7b 3d f2 43 25 bd 87 8c 94 bd
       0.0024478137 0.06143836 -0.040348 -0.07253366
0001c0 40 1b 2d 3c 72 2b e6 bd 28 e6 22 3e 06 39 04 3e
       0.010565579 -0.11238755 0.1590811 0.12912378
0001d0 18 a3 d0 bc f7 02 51 bd 01 09 a6 3c e1 3a fb bd
       -0.025468394 -0.051028218 0.020267965 -0.1226709
0001e0 e3 c9 84 bd 7b 3d 8e be d8 db 13 bd 23 70 23 bd
       -0.06483819 -0.2778128 -0.03609833 -0.039901864
0001f0 0d 7f 3f 3e 31 14 89 bd f1 9f 80 3d 1e b0 92 3d
       0.1870081 -0.06693304 0.062805064 0.07162498
000200 94 05 8b 3b f1 84 17 3d 5c 6f 68 3c 78 14 23 3d
       0.0042426083 0.036992017 0.014186706 0.039814442
000210 86 52 7b 3c c6 40 0d 3e 3f 03 2a bd d2 b3 83 bd
       0.015339499 0.1379424 -0.041507002 -0.064307824
000220 28 d8 5a 3d 97 b6 6c bd 8e 04 02 be 44 cb 8b 3d
       0.0534288 -0.05779132 -0.1269705 0.06825879
000230 52 1a 95 bd 2b 5e b3 bd 52 d5 fc bd a8 fb 36 3e
       -0.07280411 -0.087581955 -0.12345375 0.17869437
000240 06 05 6e 3c 88 ef a1 3b d5 f6 f0 bd be 28 a6 3d
       0.014527565 0.0049418844 -0.117658295 0.0811324
000250 58 25 3e bb 95 47 8e 3c e3 ec 4f 3d 95 be ef 3c
       -0.0029013958 0.017368117 0.050763022 0.029265681
000260 0a b1 7c bd 30 e3 c6 3d 94 51 17 3d de e1 04 be
       -0.061692275 0.09711301 0.036943033 -0.12976786
000270 c7 10 e2 bc 11 10 3c 3d 48 c8 2a 3e 22 fa 00 3e
       -0.02759589 0.04591376 0.16677964 0.12595418
000280 f2 36 9c bd 37 82 24 be 30 1e e8 3d 9a 76 9c bd
       -0.076276675 -0.16065298 0.11333883 -0.07639809
000290 c3 0e c9 bb 06 ac 4e 3d 4d ef d9 3d d6 ec a2 3d
       -0.006135793 0.050457023 0.10641346 0.07955329
0002a0 5f c2 e4 3d 44 41 a4 3d f8 92 13 3d 01 57 18 3e
       0.11169886 0.08020261 0.036028832 0.1487694
0002b0 4c e8 5e bd ff 1f c7 3b 37 e9 b8 3d cb a0 87 bc
       -0.054420754 0.0060768123 0.09028857 -0.016556164
0002c0 fc 3b 82 3d b8 93 8d 3c af bb 52 bd ef 63 93 3c
       0.06359097 0.017282352 -0.05144852 0.017991988
0002d0 10 e6 ba bc 6d 2d ec 3b af 5d b3 3d 63 19 9c bd
       -0.02281478 0.0072075636 0.08758103 -0.0762203
0002e0 ee ac f0 3d 0d a2 aa 3d 50 fb 62 3c 83 ed 06 3e
       0.11751734 0.0833169 0.013853863 0.13176541
0002f0 24 1b d7 bd 78 ee f4 bd b1 cf 1c bd 18 d7 f0 3c
       -0.105032235 -0.11959547 -0.038284007 0.02939944
000300 19 87 ac 3d 2c d6 1a bd 86 59 16 3e a6 9d 09 bd
       0.08424205 -0.037801906 0.14682588 -0.03359761
000310 e3 ef 86 bd 17 75 9d bd 60 77 57 bc 66 88 93 3c
       -0.065887235 -0.07688349 -0.01315102 0.018009376
000320 a8 d3 34 bd b1 2f 19 bd 8d fc 23 bd 8c 7e f0 3d
       -0.044147164 -0.037398998 -0.040035773 0.11742887
000330 e8 06 2b bd a1 e0 e3 3d 85 b7 a6 bd 24 14 35 3e
       -0.041754633 0.11126829 -0.08140472 0.17683464
000340 6d 5a 59 bd 27 32 57 3c 0b f0 10 3e c7 fd 1d 3e
       -0.053064752 0.013134516 0.14154069 0.1542884
000350 d8 a3 c9 3d 90 5a 33 3e 9e 41 f4 3b 83 51 90 3b
       0.09845704 0.17515016 0.0074541112 0.004404248
000360 60 39 15 3e 82 fd 96 3b f0 ae fc 3d 9c 81 c8 bd
       0.14572668 0.004607857 0.12338054 -0.09790346
000370 68 8f 00 bd f4 85 81 bd d2 ef 39 3e de 1e ad 3d
       -0.031386763 -0.06324378 0.1815789 0.08453153
000380 11 6d 15 3d af a4 ab bd a2 35 ea 3d fe 73 4c bd
       0.036480967 -0.0838102 0.11436011 -0.049915306
000390 9b c6 36 3e a1 14 fb 3d 12 37 af bd 3b 0e 5f b9
       0.178492 0.12259794 -0.08555426 -0.00021272239
0003a0 01 67 72 3e 35 93 d4 3b 42 88 d5 bd ff 5a 5e 3d
       0.23672105 0.006487275 -0.1042638 0.054286
0003b0 fe 54 88 bd 77 fc 7d bc 4d b3 16 3e 2b 90 34 3d
       -0.06656836 -0.015502087 0.14716835 0.0440828
0003c0 c4 2a fd bd 26 1c e9 3d c7 c6 0d 3e 30 a8 8d bd
       -0.123616725 0.11382322 0.13845359 -0.06916845
0003d0 14 54 99 3d 2d 7d e1 3d c8 f3 1b bb 13 15 24 bd
       0.0748674 0.110102035 -0.0023796428 -0.04005916
0003e0 24 8f 0b 3e f4 4f d6 3d c0 5c b4 3c cd aa 01 bd
       0.13628823 0.104644686 0.022016883 -0.03165703
0003f0 07 c2 24 3e a6 f1 e6 3b 39 c1 97 bd b2 df 1b bd
       0.1608964 0.0070478497 -0.07409901 -0.03805513

fc2.bias f4 [128]
000000 b7 d1 a1 bd 92 9e 27 be 94 2a 2a be 7a d5 2f bd
       -0.07901328 -0.16369084 -0.16617805 -0.042928196
000010 94 bb df bd e9 f7 1d bd f0 f8 f9 3c af 98 a7 3d
       -0.109244496 -0.038566504 0.03051421 0.08183419
000020 56 7f ea bd 9c 94 17 bd 8e 2c d6 3d a0 02 98 bc
       -0.11450069 -0.03700696 0.10457717 -0.01855594
000030 8c 01 9d 3d 20 e3 f8 bd b5 06 17 bd 1c 3b 12 bd
       0.07666311 -0.12152696 -0.03687163 -0.035700902
000040 c8 8e 46 be d6 14 25 3e 2c 69 73 bc dd 9b 1a 3e
       -0.19390404 0.1612123 -0.014856618 0.1509852
000050 11 eb 81 3d 5d 92 aa bd 06 ab 0a 3d 0b 7a 5d be
       0.063436635 -0.08328698 0.033854507 -0.21628587
000060 b7 3e 45 3e 26 83 ff 3d 0c c2 83 3d d0 81 b6 bc
       0.19262205 0.124761865 0.06433496 -0.022278696
000070 2e 84 d2 bd 01 40 5a 3e 67 7c f0 3d 00 8b 28 ba
       -0.102791175 0.21313478 0.11742478 -0.0006429404
000080 5a 1e d3 bd db e0 1b 3d 26 21 dc 3b 6c be 9d 3c
       -0.103085235 0.038056236 0.006717819 0.01925584
000090 91 42 07 3d f5 25 d1 bb ac 0d 84 bd b8 57 2a bd
       0.033022467 -0.0063826987 -0.0644792 -0.04158756
0000a0 f3 fc a8 bd 14 ff e6 bd b3 9f b6 bc da 38 f6 3d
       -0.08251371 -0.11279121 -0.022292947 0.12022562
0000b0 de 60 49 3e b8 bb a2 3c dc 4c 7b bd d4 55 f6 3c
       0.19665858 0.019864902 -0.061352596 0.030070223
0000c0 76 82 a4 3d 85 cf 47 3e 08 a9 20 3e 82 14 b8 3c
       0.08032696 0.19512756 0.1568948 0.022470716
0000d0 b3 30 fc bc 7c 5a 92 bd aa d0 77 bd f2 9b b7 3d
       -0.03078494 -0.07146165 -0.060501732 0.08965291
0000e0 44 b9 c9 3c 80 7e ca bd e4 c9 c5 3c dd 03 dc 3d
       0.024624474 -0.09887409 0.02414412 0.10742924
0000f0 44 31 dd bd d9 1a 69 bd 6b 8a 9d 3c 24 3a f1 bd
       -0.10800412 -0.05691037 0.019231042 -0.117786676
000100 84 4e d1 3c 71 ca 44 bd 53 3b 23 3d ed a1 c3 3d
       0.025550134 -0.048044626 0.039851498 0.09552369
000110 a0 a1 54 bc a4 e0 0d 3e 84 39 3f 3d 8e 36 8a 3d
       -0.0129779875 0.13855225 0.04668571 0.06748687
000120 5a 49 a2 bd 56 36 17 3e 28 9f 04 bd e7 92 01 bd
       -0.07924147 0.14766821 -0.032378346 -0.031634238
000130 a6 bd f3 bd f1 4e 4d bd 20 2a fd bc 6e b8 ce bc
       -0.11901407 -0.050124113 -0.030903876 -0.025234427
000140 ce f8 da bc b0 65 bc 3d a9 b5 77 3e da 29 18 3e
       -0.026729967 0.09199083 0.24190392 0.14859715
000150 48 dc c3 bc 87 7f 8f bd 37 9d 22 3c 6b a9 83 bc
       -0.02390875 -0.07006746 0.009925178 -0.016071996
000160 52 de d0 3d 4d 0c c4 bd 0f f3 a6 bc 7e b0 f1 bc
       0.10198654 -0.09572659 -0.020379571 -0.029503103
000170 85 a2 3f 3e c2 7b 42 be 5e e4 ce bc c2 e6 f1 bd
       0.1871434 -0.18992522 -0.025255378 -0.11811592
000180 d8 fb 1c 3d 48 b5 b7 bb ec 39 61 be 01 3f 11 bd
       0.038326114 -0.005606327 -0.21994752 -0.035460476
000190 3e 8a ee bd f8 93 0e be 00 61 2f 3d 80 c0 28 3e
       -0.11647461 -0.13923633 0.042817116 0.16479683
0001a0 00 73 1a 3e ba 8d e1 3d 35 66 ee 3d ca 87 90 bd
       0.15082932 0.1101336 0.11640588 -0.0705715
0001b0 94 82 fa bd 85 62 3a 3e 5d 85 fb bd a0 35 a3 bd
       -0.12231937 0.18201645 -0.122812964 -0.079692125
0001c0 9a 3c e8 bd ad 76 0b bd 44 18 09 3e 62 cf c7 bd
       -0.11339684 -0.034048725 0.13388163 -0.09756352
0001d0 c1 53 ab bc 0c 58 01 be 6e 80 56 be fa 97 4e bb
       -0.02091396 -0.12631243 -0.2094743 -0.003152369
0001e0 bc 02 b1 3b 4a 68 9f bc ed 27 14 3d bf 34 05 3d
       0.0054019373 -0.019458909 0.03617089 0.032521006
0001f0 6f ab 4a 3d c0 bf b4 3b a4 ae f3 bd 40 a7 c4 bd
       0.049479898 0.0055160224 -0.118985444 -0.09602213

fc3.weight f4 [256, 128]
000000 b0 e8 89 bb 36 8c 1e 3d 9e 6e 22 3d bf 82 68 bd
       -0.0042086467 0.038707934 0.039656274 -0.056765314
000010 21 cd 92 3d f8 81 84 bd 86 3a a1 bd 8b 49 0e bd
       0.071680315 -0.06470102 -0.078724906 -0.034738105
000020 d8 e6 90 bd b0 95 7e bd a4 58 9f 3c 7d a7 aa bd
       -0.0707528 -0.062154472 0.019451447 -0.08332727
000030 0a 87 8e bd b2 32 b2 bd c0 9b 52 bc e0 41 fb 3b
       -0.069593504 -0.087010756 -0.0128545165 0.007667765
000040 b4 00 91 3c 88 07 b0 bc a0 2a 00 bd d8 34 63 bc
       0.01770053 -0.021487966 -0.03129065 -0.013867579
000050 7e 46 66 3d 5c 28 85 3c d4 59 82 3c 77 1a 90 3d
       0.05621957 0.016254596 0.015911974 0.07036298
000060 15 ec 6a bd 06 c2 86 bd 2e 4a 86 bd 43 93 af 3d
       -0.05735405 -0.06579976 -0.065571174 0.0857301
000070 fe fb 9a bd 9c ab 9b bc 0a a3 68 bd 3d cc 3e bd
       -0.07567595 -0.019002728 -0.05679611 -0.046581496
000080 c8 81 03 3d 9a 24 03 bd d9 53 3b bd 4e 91 e5 bc
       0.03210619 -0.032017328 -0.04573426 -0.028023388
000090 a8 2f 67 bc 1d 4b b2 bd c9 e9 01 bd d2 f0 57 3d
       -0.014110483 -0.08705733 -0.031717096 0.0527199
0000a0 ef d8 5c bd 76 91 36 bd 2a 91 53 3d 60 fb 71 bb
       -0.05391782 -0.044572316 0.05165211 -0.0036923513
0000b0 0e 11 4d bd ca 6b 2e 3d 3c 5b 77 bd 81 d6 8d 3d
       -0.050065093 0.042583264 -0.060389742 0.06925679
0000c0 82 b5 08 3d b0 74 34 bd ac f2 8b bc f0 9e 8c bc
       0.033376224 -0.044056594 -0.017083488 -0.017165631
0000d0 00 23 c5 ba de 58 4b 3d ca 19 32 3d c6 ee 59 3d
       -0.0015040338 0.049645297 0.043481626 0.053206228
0000e0 0c 6b 53 bd a5 f5 8a 3d 0d f1 8b bd 68 c1 65 3c
       -0.05161576 0.06785134 -0.06833086 0.014023162
0000f0 e1 22 4a bd f3 27 a0 bd e0 c5 95 bc 2f 9b 64 bd
       -0.04934967 -0.0782012 -0.01828283 -0.055812057
000100 15 4f 1c bd ee 9d 55 3d b6 ac 9d bd 49 9a 96 3d
       -0.038161356 0.052152567 -0.076989576 0.07353646
000110 a0 07 d4 3b 90 f7 cc 3b 91 98 83 3d c6 c6 12 3d
       0.0064706355 0.0062550977 0.06425584 0.035834096
000120 be 20 56 3d 1b 49 1a bd 4a 50 e9 bc 91 61 80 bd
       0.05227732 -0.037667375 -0.028480668 -0.06268609
000130 8d 6b 54 bd 48 57 93 bd 89 5f 95 3d 51 6f 8c 3d
       -0.05186038 -0.07194382 0.072936125 0.068571694
000140 74 b7 94 bc 9c ac c4 bc 90 46 cd 3c 74 9d b3 bd
       -0.018153884 -0.024008088 0.02505806 -0.08770266
000150 9c f0 f4 3c 00 3b ed bb a4 5c 97 bc ba 99 ab bd
       0.029899888 -0.0072396994 -0.018476792 -0.083789304
000160 11 50 64 bd be 84 44 3d 77 e3 9e 3d 34 8a fb bc
       -0.05574042 0.047978155 0.07758229 -0.030705549
000170 df 4a 8c 3d ca 56 19 3d 11 47 9f 3d 40 27 b2 bb
       0.06850218 0.037436284 0.07777227 -0.005436808
000180 c7 16 aa bd 62 c8 55 bd 0c 5f 82 3c 20 a7 64 3b
       -0.08305126 -0.052193053 0.015914463 0.0034889653
000190 d1 2e 02 bd d2 05 75 3d 4c 08 cc 3c 00 49 13 3d
       -0.03178293 0.059820004 0.0249063 0.03595829
0001a0 48 c1 16 bd 60 32 cf bc 18 2b b9 bc e9 8f 8f 3d
       -0.03680542 -0.025292575 -0.022603557 0.070098706
0001b0 26 1d 77 3d 0c fc 86 bc f0 33 57 3c 42 21 99 bd
       0.060330532 -0.016477607 0.013134941 -0.074770465
0001c0 01 60 81 bd 0a 77 ab bd 00 48 c3 ba cc 68 94 bd
       -0.063171394 -0.08372314 -0.0014898777 -0.07246551
0001d0 e5 22 93 3d 88 f7 05 3d 08 19 21 3c 1c b7 b6 3c
       0.0718439 0.032706767 0.009832628 0.02230411
0001e0 b0 b0 f8 bb 94 97 b2 3c 8c 25 e2 3c 8a 48 2e 3d
       -0.007589422 0.021800794 0.027605794 0.042549647
0001f0 74 ba a4 3c 11 85 87 bd d0 e6 4b 3c 58 68 b1 bc
       0.020108439 -0.06617177 0.012445167 -0.0216562
000200 7e f9 38 bd df 8f 3f be dd 6a ef bc bf f0 9f 3d
       -0.04515981 -0.18707226 -0.029225761 0.078095905
000210 0d e1 2e bd 8a 61 e4 3d 98 37 3a 3c d7 39 aa 3c
       -0.042695094 0.111514166 0.011365794 0.020779533
000220 4f db 32 bd 76 9b dd bd 37 79 ad 3d ed 24 97 bd
       -0.04366618 -0.108206674 0.084703855 -0.0738009
000230 50 9f 2c be d2 dc 8b 3d 57 7c 55 bc cf 6f e0 3d
       -0.16857648 0.068292275 -0.013030133 0.10958826
000240 ef 02 0c be c7 7f 86 3c 1d 53 08 3e 04 93 1e bc
       -0.13672994 0.01641835 0.13312955 -0.009678606
000250 50 f6 15 be 26 5f a5 bd 90 32 a9 3b 90 0a 10 3d
       -0.14644742 -0.08074789 0.005163498 0.035166323
000260 ce cc 78 bd 73 70 5b bc c7 50 ca 3b 0a 11 38 3d
       -0.060742192 -0.013393509 0.00617418 0.044938125
000270 8a 8b 61 3d 0d 69 4f 3d d5 98 82 bd c0 41 20 3b
       0.055064715 0.050637294 -0.06376807 0.0024453253
000280 58 eb a0 bd 29 26 dc 3c fa a8 4c bd 01 30 9e bd
       -0.07857388 0.026873665 -0.049965836 -0.07724
000290 1d 2b a3 3d e2 88 71 be 76 52 65 bd a0 bd 7f bb
       0.079672076 -0.23587373 -0.055986844 -0.0039022937
0002a0 2e 9e f9 3c f7 8c 85 3d 1b c1 ca 3c 89 2f 04 bd
       0.030470934 0.065210275 0.024750283 -0.032271896
0002b0 46 69 df 3c cc 07 88 3c f4 c5 bd bd 10 ad 3a be
       0.027271878 0.01660528 -0.09266272 -0.1823008
0002c0 92 ef bb 3c b8 72 4f bc 21 10 c5 bc 41 9b 21 bd
       0.022941384 -0.012661628 -0.024055542 -0.039454702
0002d0 63 75 35 be 2d 09 f0 3b 42 14 b4 bd 62 d8 6f 3d
       -0.1772056 0.0073253126 -0.08792926 0.058555968
0002e0 80 2e 29 bd b5 dd 45 be c2 ea 27 3d 43 0f f6 3d
       -0.04130411 -0.19322856 0.040995367 0.1201463
0002f0 b8 70 17 bd b2 87 98 bd ed 3d 86 bd 15 07 93 3d
       -0.03697273 -0.07447757 -0.0655478 0.07179085
000300 b2 ac 47 3d d2 11 22 bd 82 ed e3 3c b8 7f 6c 3c
       0.04874868 -0.039567776 0.027823213 0.014434747
000310 b9 69 4d 3d fb be 23 bd ba 3e 19 3d f6 79 81 3d
       0.050149653 -0.039977055 0.037413336 0.0632209
000320 5f d6 91 bd d6 03 8a 3d 27 4a f9 ba 18 5b b8 bd
       -0.07120966 0.06739013 -0.0019019292 -0.0900175
000330 96 98 a7 bd 1e 24 a4 bd 66 b6 a1 bd 21 93 ca bc
       -0.081834 -0.08014701 -0.07896118 -0.02472836
000340 27 22 da bd 7d 73 48 3d a8 fd b8 3d a2 e3 f1 bb
       -0.10651045 0.048938263 0.09032756 -0.0073818723
000350 9c 0d 87 3d ad 6b f9 bd a9 5d 90 3d ca df 31 bd
       0.06594393 -0.12178741 0.07049114 -0.043426313
000360 09 8b c2 3d 54 ac 58 3d 56 97 39 3d d7 a5 8a bd
       0.09499175 0.05289872 0.04531034 -0.06769913
000370 68 5e 43 bd 1a 4a ed 3c a0 e7 95 3d 84 0b 4f bd
       -0.047697455 0.028965998 0.073195696 -0.05054809
000380 1f aa 78 3d cc 0f 45 3d 90 36 65 bc f0 d3 81 3c
       0.060709115 0.04811077 -0.0139900595 0.01584813
000390 ca 6e 65 3d 81 3d f9 3d 12 50 9d 3d 49 33 37 3d
       0.05601386 0.12169934 0.07681288 0.044726644
0003a0 66 17 7b bd d2 fe bb 3d 10 91 07 3d 39 9b 4f 3a
       -0.06130161 0.091794625 0.033097327 0.00079195533
0003b0 5f 3f 80 3d f7 31 bd 3d da fe 3f 3d 60 9f dc bd
       0.06262087 0.09238046 0.046873905 -0.10772586
0003c0 61 d9 1d be 3b 8d 0b be c4 c2 3c 3c 6c 72 57 bd
       -0.15414955 -0.13628094 0.011521045 -0.052599356
0003d0 a6 03 ce 3d c9 37 a9 bd 08 bf d4 bd dd f7 7b 3d
       0.1005929 -0.08262593 -0.10387999 0.061515678
0003e0 b5 28 ed bb 58 37 6b 3e 6f a2 12 3d c3 50 48 3d
       -0.0072375187 0.2297033 0.03579944 0.048905145
0003f0 74 49 a6 3d 3d cd ae 3d c6 79 6a 3d 4e 85 50 be
       0.08119479 0.0853524 0.05724504 -0.20363352

fc3.bias f4 [256]
000000 fd 8c 9f bd 9d c5 43 bb d4 d9 f8 bc f4 ac 07 bd
       -0.07790563 -0.0029872425 -0.030377306 -0.033123925
000010 b0 55 80 bd 7c 54 00 be 58 78 d4 3d 1d 4c 7f 3d
       -0.062663436 -0.12532228 0.10374516 0.062328447
000020 b6 02 62 bd 84 85 c2 bb 7b e0 62 bd 05 51 98 bd
       -0.055178367 -0.0059363265 -0.055389863 -0.07437328
000030 94 f8 01 be 26 c2 23 3c e1 dc 38 bd ee ca b2 bd
       -0.12692481 0.009995019 -0.04513252 -0.08730112
000040 ef de 90 bd 1a 8f 5f 3d dd b7 d5 bc 7c 1d 88 3b
       -0.07073771 0.05457983 -0.02608865 0.0041539054
000050 e2 ea 9f bc 7e 3d a1 bd 8d bf 37 3d 9e 6d 36 bd
       -0.01952118 -0.07873057 0.04486041 -0.044538133
000060 53 9e 68 3d 55 8d a5 bd d9 e0 23 3d 03 54 1c bc
       0.056791615 -0.080835976 0.040009353 -0.009541514
000070 fd 95 9d bd 4e fb a1 bc aa c7 04 3d 53 ef ab 3d
       -0.076946236 -0.019773152 0.032416977 0.08395257
000080 64 83 a8 3d 35 01 56 bd e6 7e d9 3c ec 3d 4c 3d
       0.08228186 -0.052247245 0.026549768 0.04986374
000090 05 eb 41 3d ac e2 d7 bd 39 26 2f 3e 24 af b3 bc
       0.047343273 -0.10541281 0.17104425 -0.0219341
0000a0 d1 10 2e bc 49 ba 06 be 4f a1 19 bd 03 53 ec 3d
       -0.0106241265 -0.13157 -0.03750735 0.11539271
0000b0 ca 1f 0e 3d f3 47 89 bc 44 b4 14 3b bd ac 01 3d
       0.034698285 -0.01675794 0.0022690454 0.031658877
0000c0 67 ba c6 bd 32 f9 eb bd 0a 88 91 3c a7 93 0e 3d
       -0.09703522 -0.115221396 0.017765064 0.03480878
0000d0 61 8c 82 3d 5e 01 7e 3c 23 74 2b 3e 81 1c 11 bd
       0.063744314 0.015503256 0.16743521 -0.035427574
0000e0 6e 26 8f bc 13 37 4e 3d 80 d2 c1 ba 3d 07 c1 bb
       -0.01747438 0.05034549 -0.0014787465 -0.0058907554
0000f0 1c 4f f4 bb ab 6a 88 3d 8a 3a ac 3d 50 08 0e 3d
       -0.0074557196 0.0666097 0.08409603 0.034675896
000100 3a 89 aa bd eb c7 8d bd 40 03 17 bb f3 b7 a0 bb
       -0.08326955 -0.06922897 -0.0023042709 -0.004904741
000110 fc 1e 42 3d da 0b b2 3d ec d3 82 3d 44 4d 68 3d
       0.04739283 0.08693667 0.06388077 0.05671431
000120 23 36 04 bd 32 a2 8c 3c 73 de 9c bc b9 e1 26 3e
       -0.03227819 0.017167185 -0.01914904 0.16297044
000130 43 48 5c bc b1 16 9f 3d dd c8 a2 3c 73 6a f9 bd
       -0.013444963 0.07768 0.01987117 -0.12178507
000140 78 6e 2e bd 28 6d ce bd 34 66 86 3d cd e2 fa bc
       -0.04258582 -0.10079414 0.065624624 -0.030625725
000150 73 75 06 be 72 ae f6 bd 72 8c d5 bd 82 34 55 bc
       -0.13130741 -0.120449916 -0.104271784 -0.013013007
000160 1c ce 74 3d 21 92 78 3b 2d 9b 98 3c 4c d4 0e 3e
       0.059766874 0.0037928896 0.018628681 0.13948172
000170 35 2b f8 3b 67 d4 a3 3d 40 cd ac bc 9b 8b 46 3d
       0.00757351 0.07999497 -0.021093965 0.048472982
000180 85 f2 08 3e f1 88 34 bb 64 0f 9c bd 11 38 88 3b
       0.13373764 -0.0027547444 -0.07620123 0.0041570743
000190 d5 1d fc 3c 9c 5d 8e bd 35 c2 ad 3d 96 1e 43 3d
       0.030775944 -0.06951448 0.08484308 0.04763659
0001a0 f4 30 83 3d 8b ea 6e bd 3e ca c2 3d 22 04 6b bd
       0.064058214 -0.058329146 0.09511231 -0.05737699
0001b0 24 14 bc 3b a8 7b bd 3c e3 0d 51 3d b2 e3 61 bd
       0.0057397056 0.023130253 0.051038634 -0.055148788
0001c0 02 65 98 3c 27 90 a0 3c ae 6b 1a 3d 5e 61 88 bd
       0.018602852 0.019599987 0.037700348 -0.06659196
0001d0 1e b1 ca bc 36 a8 a0 3c b6 3d 04 3d 9d f8 83 3d
       -0.02474266 0.01961146 0.032285415 0.064439036
0001e0 51 23 9f 3c 08 6f f4 bc a9 80 c9 3b 03 9e e7 bd
       0.01942602 -0.0298381 0.0061493707 -0.11309435
0001f0 a7 c9 07 3e b1 b4 a9 3c f5 57 9e bd e6 73 5b 3d
       0.13260518 0.020716043 -0.0773162 0.053577326
000200 fe ac 77 3d 0c d9 ec 3d a7 06 a7 bd 1f 2d 17 3d
       0.060467713 0.11564836 -0.08155566 0.036908265
000210 c5 da 4c bd 59 b8 85 bd ea d8 66 bd df a3 11 3d
       -0.050013322 -0.06529302 -0.05635921 0.03555667
000220 04 c1 be 3c 56 22 29 3d a8 ae ab 3d 00 70 94 bd
       0.023285396 0.04129251 0.083829224 -0.07247925
000230 0a 46 c0 bc 18 42 88 bc b0 81 6d bc e6 51 e9 3c
       -0.023470897 -0.016633078 -0.014496252 0.028481435
000240 ca 39 14 bc a7 c3 d4 bd 80 c8 c0 3b 55 9e 3a bd
       -0.009046981 -0.1038888 0.0058832765 -0.045561153
000250 e9 0b 4c bc 5e 63 87 3d 1f b6 14 3e 80 5d 49 3d
       -0.0124540115 0.0661075 0.14522599 0.049161434
000260 5a ad 5e bc c3 b1 fe bd d1 93 42 3d fc 6b 11 bc
       -0.013591135 -0.12436249 0.04750425 -0.008875843
000270 df 03 dd 3c 64 4b 91 3d 8f ca b2 bd 70 65 bc 3b
       0.026979385 0.07094458 -0.08730041 0.005749397
000280 0d b1 89 bd df 9d 36 bc 58 66 de 3d 66 b4 e0 3c
       -0.06723223 -0.011146038 0.10859364 0.02742977
000290 4b b6 21 3d 0a 0b bb bd 73 81 87 3d 7b 27 61 3a
       0.03948049 -0.09132965 0.06616487 0.0008588952
0002a0 84 ce 6e 3d 8f cf 35 bd c8 95 1f 3c 12 92 76 3c
       0.058302417 -0.044387396 0.0097403005 0.015049474
0002b0 dd eb 42 bd 67 12 3f bd e4 3d 9e 3b 80 34 35 3d
       -0.047588218 -0.04664841 0.0048291553 0.04423952
0002c0 bb a4 81 bc e1 f8 6f bb 75 f1 7f 3d 9a 33 f8 bd
       -0.01582562 -0.003661685 0.06248613 -0.12119217
0002d0 ef 76 91 bc 90 ec b6 bd c9 d6 97 bd de 22 bd bd
       -0.017756907 -0.089318395 -0.07414014 -0.09235166
0002e0 84 45 00 bd a7 3b 2b bd ac 70 ad bc 85 32 d3 3c
       -0.031316295 -0.041804936 -0.02117189 0.025780926
0002f0 3d 2c 8d 3d d3 34 ba bc c1 b2 28 bd 6b be a8 3d
       0.068932034 -0.022730267 -0.041186098 0.08239444
000300 e0 8f 8c 3b 26 f6 a5 3a 39 f6 b2 3c 1c 47 bc 3d
       0.004289612 0.0012661859 0.021845924 0.091932505
000310 7f b0 06 3c b4 ce ca 3d 92 a7 5e 3d 7d a6 a6 3d
       0.008220791 0.09902707 0.054359026 0.08137224
000320 d8 51 c2 3d e5 d5 98 3c e5 57 64 bd 3a 8a 3e bd
       0.09488267 0.01865668 -0.055747885 -0.046518542
000330 bd cf d3 3d f2 d6 a2 3d 0d fe b2 bd 6d 77 9e 3c
       0.10342357 0.07951154 -0.087398626 0.019344056
000340 f3 ed f7 bc ae 54 43 bc 1b 0e 5c bd ff a3 ce bd
       -0.03026483 -0.011922045 -0.05372439 -0.100898735
000350 5c cf 33 bd 78 6b 92 3d c6 91 8b 3d e1 6e d9 3d
       -0.043898925 0.07149404 0.068149135 0.106168516
000360 ea 69 51 3d c2 45 48 3d ec ee 93 bd be f8 34 3e
       0.0511264 0.04889465 -0.07223305 0.17673013
000370 79 5d 83 bd a9 8f 4e bc ec d1 54 bd 11 88 80 ba
       -0.06414313 -0.012607493 -0.05195801 -0.0009806176
000380 c4 e9 fb bc 39 a8 c7 3d 85 52 10 bd 8b ea 74 bc
       -0.030751117 0.09748883 -0.035234947 -0.0149484975
000390 68 d4 ec 3a 6d a1 91 3c c7 34 4b bd 81 8b 37 3d
       0.0018068673 0.01777717 -0.04961088 0.044810776
0003a0 c5 af 99 bd 25 73 ae bc 11 8d 41 3d 00 1c 17 3b
       -0.075042285 -0.02129514 0.047253672 0.002305746
0003b0 d7 20 a3 bd e7 61 85 bd 51 ba 85 ba 29 7f de bc
       -0.07965248 -0.06512814 -0.0010202621 -0.027160244
0003c0 cd b7 a6 3c 9f 8a a0 bd ab da 72 3b 57 86 f0 3c
       0.020351315 -0.0783894 0.0037056606 0.029360933
0003d0 0a 24 27 3d 3e 63 52 bd 85 32 96 3b ad 2b 99 bb
       0.040805854 -0.051364176 0.004583659 -0.004674396
0003e0 2f c7 f9 bd 3d d4 b1 bd 15 25 6a bb a5 2a 95 bd
       -0.121961944 -0.08683059 -0.003572767 -0.072835244
0003f0 c6 4d c8 bd 49 92 7d 3c 3e 21 22 bd 5a 01 1a 3d
       -0.09780459 0.015476772 -0.039582483 0.037598945

fc4.weight f4 [16, 256]
000000 fc cb 57 bd a4 9d ab bc 35 25 e4 bb a1 d0 9d bc
       -0.05268477 -0.020949192 -0.0069624432 -0.019264521
000010 0d 87 ae 3c 0a d1 3f 3c 72 ac d2 bc 0d 12 0a 3d
       0.021304632 0.011707554 -0.025716994 0.03370862
000020 22 12 d0 bc 42 f8 d6 3c dc 8c 2e 3d 13 e6 8e bc
       -0.025399271 0.026241425 0.042614803 -0.017443692
000030 7f 03 58 b8 94 82 1e bd e4 e6 08 3d cf e9 16 3d
       -5.150167e-05 -0.038698748 0.03342332 0.03684407
000040 9f fc 08 3c 85 2b d9 bc 85 ab 93 3c 11 d0 34 bd
       0.008361011 -0.02651001 0.018026123 -0.04414374
000050 69 31 7e bd 6c 52 e8 bc 4c 85 d5 3c b0 03 dc bc
       -0.06205884 -0.028359614 0.026064537 -0.026857227
000060 1a c9 3d bc e6 cf 29 bc 40 74 98 3c cf 3d 23 3d
       -0.011583591 -0.010364508 0.01861012 0.039853867
000070 d7 41 84 3c af 19 c3 bc 69 fa 87 bc d0 8e c9 bc
       0.016144676 -0.023815958 -0.016598897 -0.024604231
000080 b8 3d d9 3c 10 17 f9 3c 8d b7 ee 3c 7d 67 26 3d
       0.026518688 0.030406505 0.029140258 0.040626038
000090 f8 fd 6b 3d dc 53 70 bc 19 cd 38 3d 0d cf db 3c
       0.05761525 -0.014668431 0.04511747 0.026832128
0000a0 da 37 b0 bc 4e 28 0f 3b 44 cc 3d 3d 57 bf 87 3b
       -0.021511007 0.0021844092 0.04633738 0.0041426825
0000b0 3a 09 ae bc c7 eb 61 3c 6e 10 90 3b 0e 64 ba bc
       -0.021244634 0.013789124 0.00439649 -0.022752788
0000c0 56 db ac 3b 02 4d d1 bb 96 b0 f7 bc a2 f9 c1 3c
       0.0052751703 -0.006387354 -0.03023557 0.023678605
0000d0 0d ef c6 3c e5 1b fe 3c 8b 7c 3f 3b 68 e3 11 bb
       0.02428391 0.03101916 0.002921852 -0.0022260789
0000e0 c3 3e a7 3c 49 b1 c6 3c 90 13 25 3d 73 a4 9b 3c
       0.02041567 0.024254458 0.04030186 0.018999314
0000f0 bc cc 87 bd 8b ad 1d bd 75 c7 6a bc 94 6a 35 bb
       -0.06630847 -0.03849558 -0.014329781 -0.0027681934
000100 1b 3c e2 bc b0 96 fb 3c 46 df 2c bd df 4b 69 3c
       -0.027616551 0.030711502 -0.042205118 0.0142392805
000110 5a d3 0f 3c 5d 2e ce 3c 8f 48 60 bd e4 5c 4d bd
       0.0087784175 0.025168592 -0.054756697 -0.050137416
000120 3f c4 43 bd 50 52 73 bd 60 68 73 bc 40 07 58 3c
       -0.047794577 -0.05940467 -0.014856428 0.013185322
000130 2d 45 aa 3c de ef 38 bd 8f aa d8 bc 99 92 5a bc
       0.020784939 -0.04515063 -0.026448516 -0.013340616
000140 7e 36 ae 3c b3 d8 82 3d e4 24 36 bc c9 bc f3 bc
       0.021266218 0.06388988 -0.011117194 -0.029753106
000150 e1 c2 87 ba 85 fc ff bc 47 7a db bc 84 fe 21 bd
       -0.0010357761 -0.03124834 -0.026791705 -0.039549366
000160 3e d4 a6 39 50 01 3b bd a5 d6 aa bb de 57 c4 bb
       0.0003182012 -0.04565555 -0.005213576 -0.00599192
000170 24 1c 14 3b e8 39 8e bc 5c aa cf bc 36 ab 7d 3d
       0.002259978 -0.017361596 -0.025349788 0.061930858
000180 82 fa db bc fb 76 45 3d c0 09 71 3d 96 a8 66 bb
       -0.02685285 0.04820917 0.05884719 -0.00351957
000190 04 ae 10 bb be b2 f9 3c 7e 92 1d 3d 9e f1 39 bd
       -0.0022076378 0.030480739 0.038469784 -0.04539644
0001a0 b8 6b 06 3c e5 d3 c0 bb 54 c9 e7 3c 63 fa 23 bc
       0.008204393 -0.005884635 0.028294243 -0.010008427
0001b0 75 77 8f bc 61 16 46 3a a1 ab 10 3d 05 02 45 3d
       -0.017513016 0.00075564353 0.035319928 0.04809763
0001c0 32 6a 35 3d be 67 f5 3c ac cd e1 3c 9d 3c c7 3c
       0.04429073 0.029956695 0.027563892 0.024320895
0001d0 e0 cb 5a bd 24 82 4f 3c 26 1d 68 3c b1 24 2c 3d
       -0.053417087 0.012665305 0.014167106 0.04202718
0001e0 d3 87 9f 3c 62 ee 2e bd 48 29 f8 3c 66 ea 76 ba
       0.019473946 -0.04270781 0.030293122 -0.00094190834
0001f0 68 1f 04 bc e3 6c 31 bb 0e 73 22 bd 90 3e 3d 3c
       -0.008064128 -0.0027072958 -0.039660506 0.011550561
000200 36 9d e3 3c 81 4f 5a bc 2b 38 44 bd 1f 38 3a 3d
       0.027784925 -0.013324619 -0.04790513 0.045463677
000210 73 62 37 3c a4 4f 74 3d 74 f9 79 3d 7d 93 70 3d
       0.011192906 0.059646264 0.061028913 0.058734406
000220 fc 4a 3c bd c3 f4 51 bc 73 be 09 3d 5e d4 3e 3d
       -0.04596995 -0.012814703 0.033628892 0.046589248
000230 d2 ab 4d 3d 74 ad 58 bd d8 e0 21 3c d7 dd 8e 3c
       0.05021269 -0.052899793 0.009880267 0.017439766
000240 5f f4 a4 3c 82 ed 17 bd f1 67 42 3d 30 d4 d8 3c
       0.020136056 -0.03709174 0.047462407 0.026468366
000250 28 d0 18 bb 5e cb e6 3c 54 2b 7a bd 1b 14 4c bc
       -0.002331743 0.028173145 -0.061076477 -0.012455965
000260 1b 60 51 3d 85 11 af bc 43 50 ec ba 2d 9e 8f bc
       0.051117044 -0.021370659 -0.0018029291 -0.017531479
000270 13 b7 42 bd ad 32 ca bc ca b9 8c bd 28 56 03 bd
       -0.047537874 -0.024682367 -0.06871374 -0.032064587
000280 ca 07 44 bc 49 fd 8e bc c4 ea 33 bc b4 56 36 3d
       -0.011964748 -0.01745476 -0.010981265 0.04451628
000290 47 7e 99 3c 35 b5 f2 bc a1 37 0a bc e6 4d e3 bc
       0.018736972 -0.029627422 -0.0084361145 -0.027747106
0002a0 73 ef 45 3c e6 0a 20 bd 0f 65 96 bc 3f 28 6c 3d
       0.012081015 -0.039072894 -0.018358735 0.05765557
0002b0 98 bb e6 bc a2 91 cc bc fa 60 3f bd 79 bb 02 bd
       -0.028165624 -0.024971787 -0.046723343 -0.03191707
0002c0 90 71 90 3c 63 f4 66 bd 22 21 1b bd e5 5d 60 bb
       0.017632276 -0.05638541 -0.037873395 -0.0034235653
0002d0 29 40 6a bb e1 10 34 bd 50 eb 42 3d 1d 92 7d bc
       -0.003574381 -0.04396141 0.047587693 -0.015476731
0002e0 5e a9 97 bc f7 f2 49 bc f4 aa 44 3c e5 fb a0 3b
       -0.018513378 -0.012325994 0.012003649 0.0049128407
0002f0 67 ed 2d bd bb 13 0d bd b3 ed 19 ba 49 25 55 bd
       -0.042462733 -0.034442645 -0.0005871907 -0.05203751
000300 c0 fb 0d bc 5a 12 b5 3b ba a6 23 bd a3 96 a6 3b
       -0.008665979 0.0055258693 -0.039953925 0.0050838753
000310 d4 78 38 3d e9 85 0a 3d b2 5b 62 3a fa 1c 20 bb
       0.045037106 0.033819113 0.00086348795 -0.0024431334
000320 d2 2c 5a 3d f9 bd c8 3b 0e 99 0e 3d 40 98 52 bb
       0.0532654 0.006126162 0.034813933 -0.0032134205
000330 35 55 c3 bc c1 7f 87 3d 68 b1 78 bd af ad f0 3c
       -0.02384434 0.06616164 -0.060716063 0.029379694
000340 d9 36 d0 bc 63 fd c2 bc 42 b9 e0 ba 82 7e 11 bd
       -0.025416778 -0.023802465 -0.0017145055 -0.035521038
000350 e3 55 41 3d 7c 53 57 3b a6 e1 90 3c 73 73 0a 3b
       0.04720105 0.0032856157 0.017685723 0.0021125942
000360 0f 45 a3 bc 6d e1 95 3c f1 54 12 bc a7 29 56 bc
       -0.01993039 0.018295968 -0.008931384 -0.013071454
000370 07 c5 2f bd b1 4a 52 3d 22 85 5e bd 32 1c 3a bc
       -0.04291251 0.051340763 -0.054326184 -0.011359261
000380 73 65 36 bd 66 1d 58 3b 80 e9 75 bd 44 cb bd bc
       -0.044530343 0.0032976507 -0.060037136 -0.023168214
000390 7c 03 65 3d 66 20 68 3d a6 7f 39 3d a6 e9 47 3d
       0.055911526 0.056671523 0.04528775 0.04880681
0003a0 b9 db b2 3c 80 a4 39 3c 50 ae d3 bc 16 79 28 3d
       0.021833288 0.011330724 -0.025839955 0.0411311
0003b0 4d be 18 3d 16 03 e7 3b 41 84 2e 3d ff 3a 24 3c
       0.03729086 0.0070499284 0.042606596 0.010023831
0003c0 c2 ed cf 3b c3 90 47 39 f8 28 ea 3c c9 66 fc 3c
       0.0063454816 0.00019032047 0.028583989 0.03081073
0003d0 70 5f c5 3c 4f bc 46 3c f0 63 a2 bc 8c 03 64 3d
       0.02409336 0.012129857 -0.019823045 0.055667445
0003e0 c4 aa ad bb 58 fd 58 bc ea a0 e2 3c 5f a6 27 bb
       -0.005299898 -0.013243996 0.02766462 -0.0025581343
0003f0 11 e6 c4 3c e1 f7 12 3d a1 94 47 bd 6d e0 db bb
       0.024035485 0.035880927 -0.048725728 -0.0067101032

fc4.bias f4 [16]
000000 55 a8 12 bd 9d ce 88 3d 33 6b 98 3c a5 34 72 bd
       -0.035805065 0.06680033 0.018605804 -0.059132237
000010 2c 57 05 bd 17 f4 fd bc 78 6d 43 bd e7 20 21 bd
       -0.032553837 -0.03100018 -0.04771182 -0.03933802
000020 0c dc 6a bd b8 3c 6c bd 05 b5 58 bd af 7b d6 bc
       -0.05733876 -0.057675093 -0.05290701 -0.026182024
000030 bd b7 39 bd e1 ef 2e 3c 5d f1 4e 3d 4c 96 b6 bb
       -0.045341242 0.010677309 0.05052315 -0.005572116
