saved_models/enc.pt (torch, 185680 bytes, 8 tensors)

fc1.weight f4 [256, 16]
000000 3b e3 15 3e f6 c3 48 be 4b dc 87 3c 9f d5 f3 3d
       0.14637463 -0.19606003 0.016584536 0.11905979
000010 1f 71 86 3e e0 fc eb 3d 91 80 85 3e 79 13 1b be
       0.2625818 0.115228415 0.2607465 -0.15144147
000020 e1 00 c0 bb b1 3b 6b 3e d4 1e 9b 3d e2 78 98 3e
       -0.00585948 0.22971989 0.075742394 0.29779726
000030 51 9c 22 3e d7 ec 84 bd 1e d9 33 3e be 1b 93 bd
       0.15879942 -0.06490486 0.17563292 -0.07183026
000040 b8 c1 42 3d 3d 13 86 3e aa f9 28 be 2e 77 16 be
       0.047548026 0.26186553 -0.1650149 -0.14693901
000050 ac 7d 7f be 04 04 89 bd 5c 26 20 3d 84 23 64 be
       -0.24950284 -0.06690219 0.039099082 -0.22279173
000060 8d 4b 20 3b a1 a6 3c 3e ce 82 df 3d 29 81 92 3e
       0.0024459094 0.18422939 0.10913621 0.28614166
000070 17 8e 96 3c e2 48 4e be f7 05 81 bc 9a 19 c9 bd
       0.0183783 -0.2014499 -0.015749915 -0.09819336
000080 56 f9 33 3e f9 06 46 3e 67 5f 28 3e 55 e2 81 3b
       0.17575583 0.19338597 0.16442643 0.0039637485
000090 71 99 18 3d dd 2d 40 be 2a f3 dd 3d 98 67 96 bd
       0.037255708 -0.18767495 0.108373955 -0.07343978
0000a0 89 fb d7 bc c6 e6 5a 3d 09 c5 1a 3e 94 43 50 be
       -0.026365058 0.05344274 0.15114225 -0.20338279
0000b0 f6 50 40 3d 40 66 7d bc 12 57 f7 bd 90 02 4d 3e
       0.04695221 -0.015466273 -0.12077154 0.20020509
0000c0 e2 06 b9 bd 3b ad 41 3e 55 02 05 3e 3a e3 82 3e
       -0.09034516 0.18913738 0.12989171 0.25563985
0000d0 b0 b5 bd 3d 82 9f c1 3d b2 a0 b5 bd aa 97 8f be
       0.0926317 0.09454252 -0.08868541 -0.28045398
0000e0 61 e1 8f bc 63 d6 fd 3d fa 28 30 3e 54 5a 88 be
       -0.017563524 0.12394407 0.17203131 -0.26631415
0000f0 6b 84 60 be ef 03 4e be cd 25 96 be 6a 62 dc 3d
       -0.21925513 -0.20118688 -0.29325715 0.107609585
000100 31 2c 3d bd 2b 3e 83 bd 1c 19 60 3e 3e c7 16 3e
       -0.046184722 -0.06408342 0.21884578 0.14724442
000110 5a e5 5a be 8b f0 3b bd 0d 3c 89 bc 6e 0f 32 3e
       -0.21376553 -0.045883697 -0.016752267 0.17388698
000120 e2 7e df 3b 78 28 69 bb 6e 9b 0d 3e e1 c1 84 3d
       0.0068205455 -0.00355771 0.13828823 0.06482292
000130 23 0c 7f 3d 7f 94 81 bb 5b 87 eb bd 99 fb 3d 3d
       0.062267434 -0.0039544697 -0.115004264 0.04638252
000140 d9 5e 5b 3e 04 fc 7b 3e da 31 25 bd 59 ca 67 3e
       0.214229 0.24607855 -0.040330745 0.22635783
000150 3d 01 12 3e b5 06 58 bd 3b d8 e4 bd c7 08 80 3d
       0.14258285 -0.05274077 -0.11174055 0.06251674
000160 0f ca 57 3e 09 5b 2c 3d 6e 78 51 be 17 5c 06 be
       0.21073173 0.042079005 -0.20456097 -0.13121067
000170 26 4b 13 3e ef 31 8b be d4 b8 5e 3e 7d 41 89 be
       0.14384136 -0.27186534 0.21750194 -0.26807776
000180 ce 0b 62 3e d0 1d 61 3d 36 dd 1e be de 49 79 be
       0.22074816 0.054960072 -0.15514073 -0.24344584
000190 aa 0e 60 be 1e bf 0d be a0 ce f7 3c f6 e8 50 be
       -0.21880594 -0.13842437 0.030249894 -0.20401368
0001a0 80 7d 3c bc 78 c3 34 be a0 fe 96 3c da c6 4f 3e
       -0.011504531 -0.1765269 0.018431962 0.202907
0001b0 e8 28 66 3e 12 65 11 3e 02 83 24 be 88 07 f0 3d
       0.22476542 0.14198712 -0.160656 0.117201865
0001c0 3b fa 7e 3e 11 ff 07 3e a8 c5 0a be 64 3b a0 3e
       0.24900143 0.13280894 -0.13551962 0.3129531
0001d0 73 4c 13 3e 86 86 1f 3d 17 a3 42 3d 98 48 3e bd
       0.14384632 0.03894665 0.047518816 -0.04645595
0001e0 3e 9e 2b 3e d5 e0 42 be 53 48 e5 3d 21 e8 45 bd
       0.16759583 -0.19031079 0.111954354 -0.04831708
0001f0 f1 5c 92 3d 0a 68 1b 3e 14 b0 90 3e e4 dc 4a 3e
       0.071466334 0.15176407 0.28259337 0.19810826
000200 f9 bc 01 3e 43 87 2b 3e 65 95 a1 bd 9e a7 be 3d
       0.12669744 0.16750817 -0.07889823 0.09309314
000210 f9 cc ea 3c e4 17 c2 3c ef 61 84 3d 77 4c c7 3c
       0.028662192 0.023693033 0.06463992 0.024328453
000220 7d a5 ed bd ac 52 69 3d ad 03 4f 3e 8c 62 9d bd
       -0.1160383 0.056963608 0.20216246 -0.07684812
000230 13 7b 06 3e ae 0c 33 3d f7 92 1a be c9 a8 01 3e
       0.13132887 0.043713264 -0.15095125 0.12662043
000240 62 af fb bd 53 63 4a 3e 46 87 64 bd be 45 8e 3e
       -0.12289311 0.19764452 -0.05579307 0.27787584
000250 09 94 75 3d d0 82 11 3d df c7 24 3e a6 84 0e be
       0.05995563 0.035525143 0.1609187 -0.13917789
000260 b8 6d 61 bd 87 cf 21 3d e4 eb 1b bd d9 8b 6c be
       -0.055036277 0.039504554 -0.03806676 -0.23100223
000270 97 d5 b8 3c 3f 16 43 3d 29 dd 46 3e db 1d 2e 3e
       0.022562785 0.047628637 0.19420303 0.17003576
000280 37 fb 31 be ac ba 3d 3e f4 16 f1 3d cf e1 71 3e
       -0.17380987 0.18528241 0.11771956 0.23621295
000290 a5 f5 c9 bd 7e fa bc 3d 4e 42 17 3e 07 ac fa 3d
       -0.09861306 0.09227465 0.14771387 0.12239843
0002a0 41 4f 73 3e c3 d5 55 be 82 af 4e be 83 82 7a 3e
       0.23760702 -0.20882325 -0.20184138 0.24463849
0002b0 2f 63 e4 bd dd b1 87 be f8 1e 54 be e2 e9 59 bd
       -0.1115173 -0.26502886 -0.20714939 -0.053201564
0002c0 14 9d b4 3d a1 bb 97 bd db ad 7d 3e 4b f9 07 be
       0.08819023 -0.07408834 0.24773352 -0.13278691
0002d0 0b 1e d0 bc 22 f1 5b bd 12 32 b5 3c 5d cc 44 be
       -0.02540495 -0.05369676 0.022118602 -0.19218583
0002e0 2c 48 2d 3e 79 49 1e be 1c 50 17 3e 4c 90 30 3e
       0.16922063 -0.15457715 0.14776653 0.17242545
0002f0 65 e8 ea bd 41 d0 39 be 39 7e b3 bd 29 6c 60 be
       -0.11470107 -0.18145849 -0.087643094 -0.2191626
000300 d0 a6 c7 3c 94 1f 0b be 7f 1d 29 3e 57 3f b3 bd
       0.024371535 -0.13586265 0.16515158 -0.087523155
000310 8d 0d 9c 3e c0 78 fe bd 8e 7a 17 3e 00 0a c3 3c
       0.30479088 -0.12425375 0.14792845 0.02380848
000320 80 10 d3 3a 42 66 72 3e 35 77 84 3e 8b 72 2a be
       0.001610294 0.23671821 0.25872198 -0.16645257
000330 2e cd fb bd 10 15 cb bd 25 ab 94 3e 79 88 4f 3e
       -0.12294994 -0.09916127 0.29036823 0.20266904
000340 05 af 5e 3e 23 49 6e bd ec 8b b6 bd 84 48 55 3d
       0.21746452 -0.058175217 -0.08913407 0.05207111
000350 f9 3b 11 be 7b 62 b4 3d 11 5b 5e 3e 3a 1d 73 3e
       -0.14183034 0.08807846 0.21714427 0.23741618
000360 16 78 68 be 91 54 03 be c0 80 77 3e ca fa 29 3e
       -0.22702059 -0.12825228 0.24170208 0.16599575
000370 94 60 93 3e 23 08 df bd 64 e9 fe bc be 80 1b be
       0.2878462 -0.10890224 -0.031117149 -0.1518583
000380 60 fa 20 bd d9 bd db 3d d0 c9 31 3e 1e f6 d3 3c
       -0.039301276 0.1072957 0.17362142 0.025874194
000390 6b 01 00 3c 15 55 d8 3d 64 e2 43 be fb 31 91 be
       0.007812838 0.10563103 -0.1912933 -0.28358445
0003a0 1b 24 18 bd 3d 75 1f 3e 2e be ac 3c f3 b5 a2 3e
       -0.037143808 0.15572067 0.021086778 0.3177944
0003b0 d2 8f c1 be 19 c5 7c bd 11 f3 81 be 9f 1d 6d 3e
       -0.3780504 -0.061711404 -0.25380757 0.23155831
0003c0 3e 3e 96 bb b5 53 09 3e 58 13 fa 3d 36 36 16 3e
       -0.0045850566 0.13410838 0.12210721 0.14669117
0003d0 18 0b 38 be 39 49 09 be 1c 99 4f 3e 98 36 3e 3e
       -0.17972982 -0.13406838 0.2027325 0.18575513
0003e0 09 a1 a2 3e 67 1f 8a 3e 55 8f 00 be 29 dd b1 bd
       0.31763485 0.26977083 -0.12554677 -0.08684761
0003f0 d0 8f 20 be 23 8c 42 be 30 75 84 3d aa fe 19 3e
       -0.1567986 -0.1899877 0.06467664 0.15038553

fc1.bias f4 [256]
000000 a9 3b 39 be b4 9f 29 3e 3f 10 87 3e c8 99 c4 3d
       -0.18089165 0.16564828 0.26379582 0.09599644
000010 80 34 9c 3d 15 31 3d 3e 42 09 78 be 2a 64 56 be
       0.07627201 0.18475755 -0.24222282 -0.20936647
000020 f5 a3 8f 3e 65 8e 04 3e 8c c7 09 be 72 42 e1 3d
       0.28054777 0.12944944 -0.13455027 0.109990016
000030 b0 66 20 be 1f f7 37 3d 55 de a0 bd 92 72 89 3d
       -0.15664172 0.044913407 -0.078549065 0.06711306
000040 20 ea 26 be 33 83 41 be 19 36 7f 3d af fe 09 3d
       -0.16300249 -0.18897705 0.06230745 0.03369015
000050 19 2c 6f 3e 9a 1b 50 3c 11 0b 0d 3e 7c 08 cb bd
       0.23356666 0.012701893 0.13773753 -0.09913728
000060 cc 8e cf bd 22 f3 36 3c 73 0a 91 bd 06 a4 39 be
       -0.10134658 0.011166366 -0.07082071 -0.18128976
000070 4e fd 02 3c 62 19 19 3e 8a 12 2b 3e ed 16 07 be
       0.007994963 0.14951089 0.16706291 -0.13192339
000080 d5 d6 dc 3c cc 72 8b 3d e4 0f 04 bd e2 9c 15 3e
       0.026957909 0.06809005 -0.032241717 0.14610627
000090 18 d9 26 bd 70 d5 6a be a7 31 fd bd 37 90 67 bd
       -0.04073438 -0.22932982 -0.12362986 -0.05653402
0000a0 60 63 0e bc 26 6a 90 3e 4a 55 ec 3d 74 4d 71 3e
       -0.008690685 0.28205985 0.11539705 0.23564702
0000b0 0c 9f 09 be 4c a3 5e be 52 f2 d4 bd 4b 01 73 3e
       -0.13439578 -0.2174198 -0.103977814 0.23730962
0000c0 ae f1 3a bd a7 2d 01 3e 36 c1 61 3e da a2 28 3e
       -0.04564064 0.12615071 0.2204636 0.16468373
0000d0 82 df 23 be f9 24 07 be df 57 1b 3e 93 70 1e be
       -0.1600323 -0.13197698 0.15170239 -0.15472631
0000e0 80 6e 5c be 02 c2 53 be 9c d2 f8 bd aa 65 23 3e
       -0.21526527 -0.20679477 -0.121495456 0.1595675
0000f0 7d 2c 74 3e 19 13 27 3e 77 49 ac 3d 24 74 79 be
       0.23845096 0.16315879 0.0841245 -0.2436071
000100 40 49 21 3e 8c ed 3a 3e b9 49 4b 3e 95 21 da 3d
       0.15750599 0.1825468 0.19852342 0.106509365
000110 38 1d 06 3e e3 ec 8f 3e 3a cf 03 be ff 64 0a 3e
       0.13097084 0.28110418 -0.1287202 0.1351509
000120 ea b1 25 be da 28 82 3e 05 c6 e8 3d b3 5b 10 3e
       -0.1618115 0.25421792 0.11365894 0.1409748
000130 29 d5 49 3e 20 1e b5 bc 94 81 97 bd 21 c0 a4 bd
       0.1971022 -0.022109091 -0.07397762 -0.08044458
000140 12 5d 83 3d 3a 62 f3 3d 96 c1 13 be 03 0c 51 bd
       0.06414236 0.118839696 -0.14429316 -0.051036846
000150 fd fe d4 3d fa 51 79 3e fb ca 32 3d 77 79 31 3e
       0.10400198 0.24347678 0.04365061 0.17331491
000160 8b 24 15 3e b0 31 be 3d 88 0c 4a be e0 a4 a8 3d
       0.14564721 0.09286821 -0.19731343 0.082345724
000170 0d a7 a7 3d ed fe 43 be a6 3e 6b be de fc 26 3e
       0.08186159 -0.19140215 -0.22973117 0.16307399
000180 82 ad 19 be ed b3 5f 3e ac ef 3b bd 3a af 37 3c
       -0.15007594 0.2184598 -0.045882866 0.011211211
000190 d9 43 84 3e b8 c2 5a 3e 4e e8 2e be fd 56 76 be
       0.25833014 0.21363342 -0.17080805 -0.24056621
0001a0 91 21 3d 3e 30 aa 0c be c4 37 5e 3d 9a a4 5b 3e
       0.18469836 -0.13736796 0.0542524 0.2144951
0001b0 63 ff 14 be 36 22 48 be 17 f1 7c 3e 00 52 f9 3c
       -0.14550547 -0.195443 0.24701343 0.030434608
0001c0 31 e2 6f 3e 8c 52 1b 3e 36 b2 04 3e ad a4 64 be
       0.23426129 0.15168208 0.12958607 -0.22328444
0001d0 c6 31 5c 3e e6 3b d6 3d 84 db 37 be 67 40 8e 3c
       0.21503362 0.104606435 -0.17954832 0.017364694
0001e0 2c e5 fc bd 98 f6 b1 3c 18 50 65 3e 8b a6 0f 3e
       -0.123483986 0.02172403 0.22393835 0.14028375
0001f0 b2 b1 c4 3d 83 53 18 3e d1 55 4e 3d 1b 38 1c 3e
       0.09604205 0.14875607 0.05037481 0.15255778
000200 54 f0 1b 3e a2 ea 06 be bd 6d 6a 3e 1a 8e 88 bd
       0.15228397 -0.13175443 0.22893424 -0.06667729
000210 f0 8d 35 bd 86 26 94 3d be b4 0b 3e 30 25 87 be
       -0.044324815 0.0723391 0.13643166 -0.2639556
000220 18 d1 58 3e e2 7f ef 3d e9 c1 01 3e 5b ee 5c 3e
       0.21173513 0.116943136 0.12671627 0.215753
000230 44 04 bf bd cf 29 87 3d 71 4e a9 3d e7 01 76 be
       -0.093269855 0.06599771 0.08266915 -0.24024163
000240 a0 e0 ac bc c3 17 79 bc 04 75 c5 3b e6 df 4d bc
       -0.021103203 -0.015203419 0.0060259122 -0.012565589
000250 2c b9 a1 3c 6a 27 49 3e c8 a2 eb 3d 9b f5 3b 3e
       0.019741617 0.19643942 0.115056574 0.1835541
000260 bf ef 68 be 73 ea 42 3d 3f 0b b8 3c 38 66 bb 3c
       -0.22747706 0.04758687 0.0224663 0.02287589
000270 15 51 2d 3d 1d 85 7d bd 4a e3 e8 bc fb b6 ed 3d
       0.042313654 -0.061894525 -0.028428692 0.116071664
000280 64 ee 63 bc 38 cb 7d bd 95 cb 6d 3c 86 ef 30 3e
       -0.013911817 -0.061961383 0.01451387 0.17278871
000290 72 ed 07 3e b7 d1 88 3d 07 9b 4f bd fe 1a 38 3e
       0.13274172 0.06680625 -0.050684955 0.17979047
0002a0 51 2e fa 3b fe 1d 2f be 65 87 71 3e c0 66 79 be
       0.007634916 -0.17101285 0.23586805 -0.24355602
0002b0 30 ef 16 bd 40 98 0b be 78 0f 81 3c b2 44 9a 3d
       -0.0368492 -0.13632298 0.015754446 0.07532634
0002c0 95 9d 86 3d 68 e8 d5 3d f9 d5 3c 3d 7e af 64 bc
       0.06573025 0.104447186 0.046102498 -0.013957856
0002d0 d9 b2 2b 3e a2 a8 c8 3c 18 10 8c 3e 40 55 8f 3e
       0.16767444 0.024494473 0.2735603 0.27994728
0002e0 7a c8 4f be 60 2b 74 bc c4 ec 49 be fe a1 a7 bd
       -0.2029132 -0.0149029195 -0.19719225 -0.081851944
0002f0 30 e8 64 3d 69 1a cc 3c 5f ea 28 be 13 05 91 3d
       0.055885494 0.024914937 -0.16495655 0.07081046
000300 c8 6f 54 3e 4e 81 4d 3e 22 97 71 3e 82 ec 6c 3d
       0.20745766 0.20068857 0.23592809 0.05784274
000310 69 c1 d0 3d 44 0a 3d be 7e ba 10 bd 78 b6 18 be
       0.1019314 -0.18460947 -0.035334103 -0.14913356
000320 c5 bd 9f 3c 4b 3f 34 3e 0a f0 77 be 20 08 29 bc
       0.019499669 0.1760227 -0.24212661 -0.010316879
000330 d1 25 11 be 82 54 fb 3d b0 a7 93 3d ff af a6 bd
       -0.14174582 0.12271978 0.07209718 -0.08139037
000340 ff 82 8f 3e 0b 12 b1 bd 70 37 2e 3d c9 4d 27 be
       0.2802963 -0.086460195 0.042533338 -0.16338266
000350 f8 97 b0 bd 5a c5 9d 3e c3 99 9c 3d 09 42 64 3e
       -0.08622736 0.3081463 0.07646515 0.22290815
000360 ba 0c ce 3d ce 42 6b be 75 66 e7 3d a0 4d 11 bd
       0.10061021 -0.22974703 0.11298839 -0.03547442
000370 44 be c3 3d cc 0f 13 be 14 09 0a be be 41 ec bb
       0.09557775 -0.14361495 -0.13480026 -0.0072099855
000380 bb 0a 3a 3e 41 20 02 be e6 f2 4c bd f2 01 e1 bd
       0.18168156 -0.12707616 -0.050036334 -0.10986699
000390 59 f7 27 3e 41 0e 7f 3e f7 b9 db 3c 22 58 49 3e
       0.1640295 0.24907781 0.026822073 0.19662526
0003a0 4e 56 66 3e b3 66 20 3d d0 ab 16 bd b5 f8 25 be
       0.2249386 0.03916044 -0.036784947 -0.16208155
0003b0 34 48 7a 3e aa b0 73 be 56 a9 75 3e 7a d0 e2 bd
       0.24441606 -0.2379786 0.23990378 -0.1107492
0003c0 01 dd ba bd cc 7a 43 3e 5c 65 38 3e b4 bd 58 be
       -0.091241844 0.19089812 0.18007416 -0.21166116
0003d0 27 4e 39 bd 4c 00 39 be 24 04 e8 bd 30 da 82 3c
       -0.045240548 -0.1806652 -0.11328915 0.01597318
0003e0 6a 9a be bd 20 bc e5 3c 0c 8b 0e be 36 d0 31 be
       -0.09306796 0.028043807 -0.1392023 -0.17364582
0003f0 44 5b 8b 3d 17 ac 22 3e ef 84 8a bd 6c f0 b6 3d
       0.06804517 0.1588596 -0.06763636 0.089325756

fc2.weight f4 [128, 256]
000000 d2 67 25 bd 54 52 4b bd 58 8d bc bc 34 76 5b bd
       -0.040382214 -0.04963906 -0.023016617 -0.053579524
000010 5a 2b 40 bd cc 77 4b 3d 88 05 11 3c 10 7f 69 bd
       -0.046916343 0.049674794 0.008851416 -0.057005942
000020 42 47 6f bd f4 b6 af bc 32 3b 68 3d 28 43 a0 3c
       -0.058417566 -0.021449544 0.056697078 0.019563273
000030 18 b6 8d 3c 66 b5 6d bd 0e e0 1e 3d 98 dc bc bc
       0.017298743 -0.058034323 0.038787894 -0.023054406
000040 50 99 1c 3d d0 b9 cf bb ee e5 4c bd e0 ff 76 3d
       0.038232148 -0.0063392892 -0.050023966 0.060302615
000050 a8 5d 05 bd f4 26 cb 3c 48 af 32 3c 80 50 46 bd
       -0.03256002 0.024798848 0.010906048 -0.048416615
000060 0a bb 3a 3d 50 8c 63 3d 68 f4 e0 3c cc 79 cb bc
       0.04558853 0.055553734 0.027460292 -0.02483835
000070 0e 8e 54 3d 98 d5 58 bd 7a 14 03 3d 40 cf b0 3a
       0.051893286 -0.052938074 0.03200195 0.00134895
000080 42 1f 31 bd 62 92 1c 3d d0 21 62 bc 60 1f 25 3d
       -0.0432427 0.03822554 -0.013802007 0.040313125
000090 08 d2 2f bd ba 66 2e 3d ae 5c 4c 3d 3a d8 20 bd
       -0.04292491 0.042578436 0.049893074 -0.03926871
0000a0 00 8e 58 bb bc a3 5e bd 40 eb 28 bb 58 d8 0a bd
       -0.0033043623 -0.054355368 -0.0025774986 -0.033897728
0000b0 70 ec 9a bb d0 f9 d4 bc 7e be 3b bd 88 4f 0b bd
       -0.0047278926 -0.025998026 -0.045835964 -0.034011394
0000c0 66 31 6d bd 1c f0 5c bd 2e 33 20 bd 9e f9 33 3d
       -0.05790844 -0.053939924 -0.03911131 0.043939225
0000d0 c0 6d b4 bb 34 20 58 3d 40 d2 cc ba ea 77 14 bd
       -0.0055062473 0.052765086 -0.0015626624 -0.03624717
0000e0 d0 76 30 bc 00 84 6e 3d 76 b9 79 3d e0 52 67 3d
       -0.010770515 0.058231354 0.060967885 0.05647552
0000f0 6a 3f 71 bd fe 4f 28 3d c8 85 11 bc f8 a5 00 bd
       -0.058898367 0.04109191 -0.008881994 -0.03140828
000100 90 74 a8 3c 84 af 06 bd 0a aa 68 3d 80 2f d1 3a
       0.020563394 -0.03288223 0.056802787 0.0015959591
000110 fc 62 da bc a2 19 4e bd 00 ce 31 bd 98 ab 5e bc
       -0.026658528 -0.050317414 -0.043409348 -0.013590716
000120 02 67 45 bd 84 02 05 bd c2 d4 01 3d 88 21 9f 3c
       -0.04819394 -0.032473102 0.031697042 0.019425169
000130 fa 1b 09 3d c6 8e 5f 3d 20 48 c2 bb 1c 40 ee bc
       0.033473946 0.05457952 -0.005929008 -0.029083304
000140 20 39 d8 3b c0 a3 fe bb 0c fb f3 bc 1c 37 82 bc
       0.0065986067 -0.0077709854 -0.029782794 -0.015895419
000150 b4 4e 93 bc 72 6f 60 bd 38 79 a3 3c 5a 02 07 bd
       -0.017981865 -0.054793783 0.019955263 -0.032961227
000160 40 d9 eb 3a d8 c1 d5 bc 98 b9 5c 3d 20 f2 42 3d
       0.0017993823 -0.026093408 0.053887933 0.04759419
000170 56 5b 58 bd f8 33 b6 bc e4 06 08 bd e8 24 57 bd
       -0.05282148 -0.022241578 -0.033209696 -0.05252543
000180 32 91 49 bd 4c 37 b4 bc c8 61 64 bd 0c 3d 1e bd
       -0.049210735 -0.021999024 -0.055757314 -0.038632438
000190 70 0c 69 3c c8 e1 33 bc 84 d4 31 3d 8c 2e 73 3d
       0.014224157 -0.010979123 0.04341556 0.059370562
0001a0 10 28 4b bc 80 28 cd 3b 70 81 d2 3b ba 95 20 bd
       -0.012399688 0.0062609315 0.0064241216 -0.03920529
0001b0 c0 d4 e5 bc 58 5e 08 3c ac 09 be bc 86 38 31 3d
       -0.028055549 0.008323275 -0.023197971 0.043266796
0001c0 36 04 45 bd c0 55 d9 3a 6c 99 0c bd c8 40 39 bd
       -0.04809972 0.0016581342 -0.034326002 -0.045227796
0001d0 54 7b 7e bd c8 fc 50 bc fe a6 5c bd 14 d7 9b 3c
       -0.062129334 -0.01275558 -0.053870194 0.019023456
0001e0 58 30 a7 bc 40 13 b2 3a 72 c3 14 bd 20 51 23 bd
       -0.020408794 0.0013586059 -0.036319204 -0.03987229
0001f0 5c 2a 7a bd 18 98 04 3c 9e 0a 4d bd 24 67 35 3d
       -0.061075553 0.008092903 -0.050058953 0.044287816
000200 a4 94 15 bd 66 cf 20 3d 78 a7 9a 3c 32 1c 71 3d
       -0.036518708 0.03926029 0.018878683 0.05886478
000210 30 7f 4e bd fc 4d 5c 3d 44 36 39 3d 80 55 c2 bc
       -0.050414264 0.05378531 0.045217767 -0.02372241
000220 20 50 78 bc 00 7d 20 3b 6a c7 0a 3d 8c db 07 bd
       -0.015155822 0.0024488568 0.033881582 -0.03316836
000230 d0 f1 d5 bc d0 e3 f6 3c 96 c6 41 bd 74 fc 73 bd
       -0.026116282 0.030137926 -0.047308527 -0.05956693
000240 fa 1a 1d 3d b6 a5 44 3d 6a 26 3d 3d 20 8a 40 bd
       0.038355805 0.048009597 0.046179213 -0.047006726
000250 a0 bb fe bc 2c bf 56 3d f0 80 ab bb 70 7c f5 bb
       -0.031095326 0.05242841 -0.0052338764 -0.0074916407
000260 10 e8 12 3c 44 b3 e9 bc 00 35 45 3a a6 2a 66 3d
       0.008966461 -0.028527863 0.0007522851 0.056193016
000270 e4 85 cb 3c ba f7 0b bd 00 1d d2 bb 90 89 f5 3c
       0.024844117 -0.034171797 -0.0064121485 0.029972821
000280 7c 33 93 bc 40 a5 32 bb 40 ff d6 ba dc c6 7b bd
       -0.017968886 -0.0027259141 -0.0016402975 -0.061468944
000290 24 85 3b 3d 58 36 76 3c 70 8f 81 3c 72 61 59 3d
       0.04578127 0.015027605 0.015815467 0.053071447
0002a0 98 78 53 bc 0a e7 21 3d 86 e4 35 3d 60 70 d4 3b
       -0.01290717 0.039526977 0.04440739 0.0064831227
0002b0 0c 9e e9 3c 54 cd ca bc 28 b6 11 3c e0 f5 64 bc
       0.028517745 -0.024756111 0.008893527 -0.013974637
0002c0 aa a7 72 bd d8 ac e7 3c 16 a6 63 bd 00 65 5b bd
       -0.05924193 0.02828066 -0.055578314 -0.053563118
0002d0 98 9b 2d bd 4e 06 55 bd 00 a7 a8 39 6e e7 5f bd
       -0.042384714 -0.052007966 0.00032167882 -0.054664068
0002e0 38 7e b4 3c 08 c3 d4 bc 94 e3 32 3d 44 1d 79 3d
       0.022032842 -0.025971904 0.043674067 0.060818925
0002f0 00 cc 80 b8 7c f4 07 3d 70 7f 36 3d b4 a0 13 3d
       -6.1415136e-05 0.033192143 0.044555128 0.03604193
000300 ec 3d 04 bd 78 96 81 3c a6 86 0d 3d 30 ff 95 3c
       -0.032285616 0.01581882 0.03455224 0.01831016
000310 30 16 79 3d 76 8e 62 bd be 05 2c bd 90 a8 29 bd
       0.060812175 -0.055311643 -0.041997664 -0.04142052
000320 a8 50 05 3d 90 0d cd bb 68 f9 c0 bc d4 ca e2 3c
       0.032547623 -0.0062577203 -0.023556426 0.027684607
000330 50 81 82 3c 88 8c b1 bc 20 54 66 bb f6 72 77 3d
       0.015930802 -0.021673456 -0.0035145357 0.06041237
000340 6c 46 0d 3d 00 74 48 bb e4 f3 02 3d 5e 3a 1b 3d
       0.034490988 -0.003058672 0.031970873 0.03789746
000350 50 9d bb 3c d2 ab 78 3d e8 e7 14 bd 7e e5 1b 3d
       0.02290216 0.060710736 -0.036353976 0.038060658
000360 b8 75 02 3d d4 ad 3a 3d 78 37 f4 bc e4 07 e7 3c
       0.031850547 0.04557593 -0.029811606 0.028202005
000370 70 9f fe bc 14 db b1 bc f0 41 c6 bc 14 7f 33 bd
       -0.031081885 -0.02171091 -0.024201363 -0.043822363
000380 3c 0b 26 bd b6 cb 3e bd a8 94 33 3c fe 45 17 3d
       -0.040538058 -0.046580993 0.010960735 0.036931984
000390 80 2e 3f 3a 10 bb fa 3c 88 87 d5 3c 20 13 a8 3b
       0.0007293001 0.030606776 0.026065603 0.005129233
0003a0 00 37 5c 3d 9a 05 23 bd 9a 73 7d 3d 60 2b 58 3c
       0.05376339 -0.039800264 0.061877824 0.013193935
0003b0 ec db d9 3c 40 ca c7 bb e0 a2 cb 3b 94 19 da 3c
       0.026594125 -0.006097108 0.0062144846 0.026623525
0003c0 48 61 8a bc 08 23 c0 3c 6e f1 79 bd 04 76 7a bd
       -0.01689209 0.023454204 -0.06102126 -0.061147705
0003d0 d0 2d ce bb e0 47 11 3c 2c 02 21 3d 06 6f 65 3d
       -0.0062920824 0.008867234 0.039308712 0.056014083
0003e0 2c ea 7a bd 1a 00 08 3d 18 ab e1 3c 58 08 f2 bc
       -0.06125848 0.03320322 0.027547404 -0.029544994
0003f0 84 d1 25 3d 68 eb 7d 3c 30 eb 52 bc e0 88 1a 3d
       0.040483013 0.01549802 -0.012873456 0.03772819

fc2.bias f4 [128]
000000 f6 0a 12 3d 72 7d 25 3d 89 50 ed bc 91 43 3a 3d
       0.035654984 0.040402837 -0.028969066 0.045474593
000010 b5 21 68 3d 75 c0 77 3d 3a 28 6e bd 81 4a 00 3d
       0.05667277 0.060486276 -0.05814383 0.031321052
000020 82 33 f6 3c 08 68 8f 3c b1 c2 d3 b9 1f fc ff bc
       0.030053858 0.01750566 -0.00040390113 -0.03124815
000030 8d 52 5e bc d6 c1 95 3d 54 33 b0 3c 50 0c 85 bd
       -0.013569486 0.07312362 0.02150885 -0.06496489
000040 60 61 0c 3c a0 46 46 bd 45 65 d9 bc f3 31 2f 3d
       0.008568138 -0.048407197 -0.026537547 0.042772245
000050 80 99 8c 3c d4 f7 b8 bc ca 3e 37 bd 02 fa 8a 3d
       0.017163038 -0.022579111 -0.044737615 0.067859665
000060 80 74 24 3a dc dc bd bc 10 f1 38 bc 5c f0 1b 3c
       0.00062734634 -0.023176603 -0.0112879425 0.009517755
000070 ee 97 80 3d f0 0b d4 3c c3 bc 1d ba 8d 09 6f bd
       0.06278978 0.025884598 -0.00060172024 -0.058358718
000080 94 29 35 bd 04 89 66 3d 9a b0 7a bd f4 0d 67 bd
       -0.044229105 0.056283012 -0.061203577 -0.05640979
000090 9d 43 e0 bc b3 66 4f bd e0 94 2e 3d 04 43 0d bd
       -0.02737599 -0.05063505 0.042622447 -0.03448774
0000a0 52 b7 13 3d b8 e4 6a bc b7 80 d5 3c 9e c0 a5 3d
       0.0360635 -0.014336757 0.026062353 0.080933794
0000b0 24 ac 47 3d 19 db 52 bd 6c dc c3 bb 47 da 88 bc
       0.04874815 -0.05147848 -0.005977204 -0.016705645
0000c0 70 5c 90 bb 8d 11 a6 bc cd dc 82 3c 63 36 36 3d
       -0.0044055507 -0.02027204 0.015974427 0.04448546
0000d0 d0 0b 37 3d 22 87 88 bc 3c 0b 03 3d 84 37 65 3d
       0.044689 -0.016665999 0.031993136 0.055961147
0000e0 86 5b 0c 3d 3d 14 37 bd af 72 57 3d 33 f9 a0 b7
       0.03426697 -0.044697035 0.052599605 -1.9189529e-05
0000f0 17 73 56 3d 8a b3 e7 3c fb 4b 88 3d 87 7f 5e 3d
       0.052355852 0.028283853 0.06655117 0.05432084
000100 c6 fb 23 bd 86 4c bf bc 99 32 7d 3b 15 38 44 bd
       -0.04003503 -0.023351919 0.0038634895 -0.047905046
000110 da d8 21 3c e4 b7 74 3d 60 f5 10 3d 7f 6b 41 3d
       0.009878362 0.059745684 0.035390258 0.047221657
000120 c5 0a 9d 3d 2f f2 76 bd 75 0f f7 3c ac c7 97 3c
       0.0766807 -0.060289558 0.030158738 0.018527828
000130 75 a6 2f 3d 80 16 1d 3c fc 84 49 3d f7 03 82 3d
       0.042883355 0.009587884 0.04919909 0.063484125
000140 f8 77 c7 bc 00 d6 70 3b 80 8f 1b ba 82 cc 49 3d
       -0.024349198 0.0036748648 -0.0005934164 0.0492673
000150 78 63 30 bd eb 6e e2 ba 4b 0a 06 3d f8 8a 29 3d
       -0.04306361 -0.0017275488 0.03272466 0.041392297
000160 85 c6 f1 3c 7d 3e 80 3c 32 ee 2a bd 18 fb ad 3c
       0.029513607 0.015654797 -0.041731067 0.021237895
000170 99 a3 28 3c f0 25 fc 3c 45 17 b1 3d ed aa 0a 3d
       0.010292911 0.030779809 0.086470164 0.033854414
000180 c4 c1 b6 3d d8 7e 01 bd d0 1b 6d 3c f0 06 6b 3d
       0.089236766 -0.03161511 0.014471963 0.057379663
000190 c0 42 d8 3c 60 a1 7a 3c cc 65 06 bd 51 c7 a8 3c
       0.026399016 0.015297264 -0.032811925 0.020602854
0001a0 0a 81 64 bd 9f f0 48 bd 59 9f 54 3d f8 b6 25 bc
       -0.055787124 -0.0490576 0.05190978 -0.010114424
0001b0 76 69 d7 3c ac 14 bb ba ee 25 d4 3c bd 11 93 3d
       0.026295405 -0.0014273128 0.025896993 0.07181118
0001c0 f8 68 4c 3d 9f a9 a0 3d 66 75 a5 3d 70 8e 2e 3b
       0.049904794 0.07844853 0.080790326 0.0026635192
0001d0 44 59 28 bc 9a 15 30 3c 99 b6 a6 3d 1b e6 a6 3b
       -0.010275189 0.010747338 0.081402965 0.0050933487
0001e0 11 51 6b 3d 64 0a 21 3d b7 36 aa 3d fd a6 89 bc
       0.057450358 0.03931655 0.08311217 -0.016803259
0001f0 ef 6c ab 3c 90 0f 41 3c 47 d7 90 3d 69 c8 c0 bc
       0.020925967 0.011783496 0.07072311 -0.023533063

fc3.weight f4 [64, 128]
000000 6c d8 9a bc b4 d2 62 3d 63 25 3e 3c 4f b1 2c bd
       -0.018902026 0.055376723 0.011605593 -0.042161282
000010 01 e7 53 bd 83 0d 14 bd b8 77 1a 3c 53 73 1d 3d
       -0.051733974 -0.0361457 0.009427957 0.03844006
000020 33 57 cd bd bd d4 d4 3c ae 1b 78 bc 4d 42 fb 3c
       -0.100263976 0.025980348 -0.015143318 0.030671263
000030 13 b7 88 3d 82 d7 b8 3d d6 3b 72 3d 56 de 3d bd
       0.06675544 0.0902548 0.059139095 -0.046354614
000040 34 e0 e6 bc 0c 6c df bd 7e fc 93 3d ee 39 8a bd
       -0.02818308 -0.1090928 0.072258934 -0.067493305
000050 6a 47 98 3d 40 a3 00 3b 61 e5 86 3d da e5 63 bd
       0.07435496 0.0019628555 0.06586719 -0.055639125
000060 06 59 80 bd 80 91 c1 3d bf 31 8b 3d 34 b6 bd 3d
       -0.0626698 0.0945158 0.06796598 0.09263268
000070 b4 d2 bd 3d 77 01 24 3d 87 fe a1 3d 3e 04 8c 3d
       0.09268704 0.04004046 0.07909875 0.06836747
000080 8d 24 a2 bc 84 49 1f bd 86 c4 7d 3d 99 2a 8e bd
       -0.01979282 -0.03888847 0.061954997 -0.069417186
000090 26 0e 2e bd be 58 bd 3d 60 16 98 3d b0 61 14 bd
       -0.04249396 0.09245442 0.07426143 -0.036225975
0000a0 d5 7b 30 bb 00 2f 55 bb 6b b6 65 3d c0 2f bb 3d
       -0.0026929278 -0.0032529235 0.05608217 0.09139967
0000b0 52 e2 e4 bc e3 dd 78 bd 98 7a 82 bd a8 89 89 3c
       -0.02793995 -0.060758483 -0.06371039 0.016789272
0000c0 dc 7e e3 3c 4c 2f 0b bd 77 d0 80 3d 1d a4 55 bc
       0.027770452 -0.033980653 0.062897615 -0.013039616
0000d0 40 71 ef 3c 77 df 0b bd fd a6 d2 bc ae 2e 9e 3d
       0.029228806 -0.03414866 -0.025714392 0.07723747
0000e0 9c 5a d4 3b a7 ee 90 3d f6 19 8b 3b 14 9e a0 3d
       0.006480528 0.07076769 0.004245038 0.07842651
0000f0 46 17 60 3d d6 c4 7a 3d b5 40 c9 bc 4d 9c a6 bd
       0.054709695 0.061222874 -0.024566988 -0.08135281
000100 9c a5 0b 3d 57 16 ce 3c 68 f6 91 bd 89 a3 96 3d
       0.034093484 0.025157137 -0.071270764 0.073554106
000110 42 88 8c 3d 15 bb 74 3e fb 83 71 3c 83 10 8d 3d
       0.068619266 0.23899491 0.014740939 0.06887915
000120 58 0d ae 3d c4 e3 ff bc a4 8d 9a 3d 9e 54 57 3d
       0.08498639 -0.031236537 0.07546547 0.05257093
000130 a5 24 ad 3d 1a 2c 01 3d 61 f4 76 bd e7 6b d2 3b
       0.08454255 0.0315362 -0.06029165 0.0064215544
000140 31 e3 46 3e 1c 4d 81 3c 52 c5 5f 3d 59 a3 2f 3d
       0.19422604 0.015783839 0.05463154 0.04288039
000150 45 ec 10 bd 26 3e 4c 3d 6d 78 a0 bd c9 10 84 bd
       -0.035381574 0.049863957 -0.078354694 -0.06448514
000160 61 ae 60 3d 98 fe 91 bd 49 a8 00 3d 25 e4 83 bd
       0.0548538 -0.07128638 0.03141049 -0.064399995
000170 ab 1c 56 3d 10 0e 19 bd 7a e0 5a 3d cd 5a e9 bb
       0.052273434 -0.037366927 0.053436734 -0.00712142
000180 f1 38 25 3d e0 77 60 bc 13 e3 8a 3d 96 7b ac bc
       0.040337507 -0.013700455 0.06781592 -0.021055024
000190 6e 3c 2a bc 42 7e 21 3d fd 72 ab 3d 47 d6 8d bd
       -0.010390384 0.03942705 0.08371542 -0.06925636
0001a0 67 b9 96 bd 33 65 93 bc fe e2 65 bd 7e 4c a6 bd
       -0.073595814 -0.017992591 -0.05612468 -0.081200585
0001b0 cf 52 a1 bb 48 2c 94 3d f3 bf 83 bd 91 ef ed bc
       -0.0049232016 0.072350085 -0.06433096 -0.029044898
0001c0 e3 07 8e bd d5 e5 89 3d 47 19 9b bd 54 6f 8f bc
       -0.06935098 0.0673329 -0.07573181 -0.01750914
0001d0 51 8a 35 3b 4d 21 e7 3c 43 9d 2c 3d 91 c1 3e 3d
       0.0027700851 0.028214121 0.042142164 0.046571318
0001e0 97 26 f0 3c 00 31 08 bc 83 ba 8b bd d0 a9 82 bd
       0.029315276 -0.008312464 -0.06822684 -0.063800454
0001f0 36 b7 18 3d 7b 98 11 bd 26 98 10 be 7d 48 42 bd
       0.0372841 -0.035545807 -0.1412054 -0.04743241
000200 f7 fe a7 3d c8 03 af bb d6 36 7d 3d a2 4f c5 bb
       0.082029276 -0.005341027 0.061819874 -0.006021456
000210 f6 cc e9 bc 81 a1 3a ba d0 63 b2 3c 05 9b 9c 3b
       -0.028540116 -0.0007119403 0.02177611 0.004779222
000220 05 8a 41 bb 0c 78 53 bd fe 7f c0 3d 1f 7d 00 bd
       -0.002953173 -0.051628157 0.093994126 -0.031369325
000230 20 07 ed 3d 07 2d f2 3c 8c 90 c5 bc f5 86 ba 3d
       0.115736246 0.029562486 -0.024116777 0.09107772
000240 23 e7 a1 3d ae bd 20 3e e0 b1 2b 3d 0b 92 19 be
       0.07905414 0.15697357 0.04191768 -0.14997117
000250 f8 dc 45 3c be 06 2e bd d1 05 9d bc 67 bf e2 3d
       0.012076609 -0.0424869 -0.019167813 0.11071663
000260 08 02 66 bc e6 2c ce 3d e2 2e 8f bd 6a c4 b5 3d
       -0.01403857 0.100671574 -0.06991364 0.08875354
000270 52 e4 f6 3d cb 68 b8 3d 66 2e bd bc 03 3b 85 3d
       0.120552674 0.09004363 -0.023093414 0.06505396
000280 00 70 5b 3e 20 4f 3a 3d ab 38 0d bd b6 da e0 bc
       0.21429443 0.045485616 -0.03447787 -0.02744804
000290 4f 42 dc bb b5 41 5d 3b 57 7d 83 3b f2 0c 3a 3e
       -0.006721772 0.0033761088 0.0040127444 0.18169
0002a0 2f 85 74 bd 2d 04 91 bd 42 e1 5d 3d 70 b4 cd 3d
       -0.059697326 -0.070808746 0.0541699 0.10044181
0002b0 e4 ff 8a 3d 0d f5 af 3b 9a 67 5b bd 21 79 05 3d
       0.067870885 0.0053697885 -0.0535656 0.03258622
0002c0 34 d4 85 bc b1 8a f7 ba 00 1a cd 3d 70 63 4d bd
       -0.016336538 -0.0018885938 0.10014725 -0.05014366
0002d0 5e 65 37 3d 2b 58 da 3d e4 f6 54 3d 0d ff 92 bd
       0.044774406 0.10661348 0.051993266 -0.07177553
0002e0 98 e8 d9 3b 2e 0a 88 bd 70 23 1f bd 38 39 86 3c
       0.006650042 -0.066425666 -0.038852155 0.016384706
0002f0 ca ba a7 bd 43 9e 26 bd 36 dc be 3c 73 a4 65 3d
       -0.08189924 -0.040678274 0.023298364 0.056065034
000300 04 d5 c7 3c 46 09 ef bc 02 ee f7 3d b1 f1 91 bd
       0.024393566 -0.029179227 0.12105943 -0.07126177
000310 01 57 a8 bd 6a 2c be bd 78 d5 aa 3d 11 c8 e7 3c
       -0.0821972 -0.09285815 0.08341497 0.028293641
000320 6a 5b 1f 3e f3 65 94 3d 4f 01 77 3d 43 74 9b 3d
       0.15562215 0.07246008 0.060303982 0.075905345
000330 bb 19 97 bd 4a 3d af bd 33 97 18 3d 5c 5d b3 3d
       -0.073779546 -0.08556612 0.03725357 0.08758041
000340 ad e6 5a 3e 55 32 9e 3d 80 b2 97 3c 2f 18 80 3d
       0.21377058 0.07724444 0.018517733 0.06254613
000350 4e 1b 1f bd 17 75 a0 bd 2e 29 70 bc 21 83 5c 3c
       -0.0388444 -0.07834833 -0.0146582555 0.013458998
000360 e1 20 5d 3d 06 dd 62 3e 7e af 04 3e 2b c2 d6 3d
       0.053986434 0.22154626 0.1295757 0.10486253
000370 38 72 6a 3d 32 44 2b bc 8c f6 a8 3d 55 2e dc bb
       0.057237834 -0.010453271 0.0825015 -0.0067193904
000380 db 15 f0 3d 21 12 9f bd 2b 71 9f 3d 8b 75 a2 3d
       0.117229186 -0.0776713 0.07785257 0.07932576
000390 9f 59 4a be 7e 32 45 3d c6 4b e2 bc d3 29 80 3d
       -0.1976075 0.048143856 -0.027624022 0.06257977
0003a0 22 48 32 bd de 42 0f bd 64 3b 7f 3c 81 a4 40 3d
       -0.043525822 -0.03497588 0.015578125 0.047031883
0003b0 46 58 41 be 07 f5 39 ba a7 d8 21 3c cf 94 03 3e
       -0.1888133 -0.0007093702 0.009878314 0.12849735
0003c0 94 ad 20 ba b5 15 c4 bc 48 37 bb 3d b4 6a 91 bd
       -0.0006129381 -0.023936132 0.091414034 -0.0710043
0003d0 67 fa f5 bd 47 ee 3a be f0 b8 66 3d cc 04 14 3e
       -0.12010651 -0.18254958 0.056328714 0.14454955
0003e0 07 19 51 3d 80 71 29 bb 1c 3c d4 3c 98 38 26 3d
       0.05104926 -0.0025855005 0.025907569 0.040581316
0003f0 d7 17 91 bc 74 e5 81 bd e7 ed e3 3d a2 c6 b8 3d
       -0.017711563 -0.06342593 0.11129361 0.09022261

fc3.bias f4 [64]
000000 6c f2 93 3d 2c 29 88 bc ea 42 71 bd e7 66 55 3d
       0.07223973 -0.016621195 -0.058901705 0.05210009
000010 68 96 a3 3d 99 9c 6b 3d a4 51 3d bd bc f6 94 bd
       0.07987672 0.05752239 -0.046220437 -0.07273623
000020 bd 1d 5e 3d e2 43 8a 3d ba 23 4a bd 71 e0 79 bb
       0.05422758 0.06751229 -0.049350478 -0.0038128162
000030 b5 b5 7a 3d e5 ac 79 3d 9e 12 bb 3c 81 4f 39 3d
       0.061208446 0.0609559 0.022836026 0.045241836
000040 f0 27 42 bd cb a0 90 3d 3a 45 81 3c 6b 4e 63 3a
       -0.04740137 0.07061919 0.01578008 0.0008671048
000050 fc 11 5b 3d 63 b4 9b 3c 76 6f 29 3d 10 96 2c bd
       0.053483948 0.019006914 0.041366063 -0.0421353
000060 95 8f b3 bc 61 91 1b 3d bc 8b f9 3c ec 81 68 bd
       -0.021919051 0.03798044 0.030462138 -0.05676453
000070 c5 df 0d bd a5 7d 7b 3d ad ef 9d 3d e6 76 98 bd
       -0.03463723 0.06139912 0.0771173 -0.07444553
000080 90 ed 2e bd 12 fe c7 3d ea 64 4e 3d 21 22 21 3d
       -0.042707026 0.09765257 0.050389208 0.03933919
000090 77 7c bc 3d eb fe cf 3d 9c bd b0 bd 0d 60 34 3d
       0.09203427 0.101560436 -0.08629915 0.044036914
0000a0 51 78 73 3d 88 85 c7 3d 51 15 1e 3d 6c 20 7a bd
       0.059440915 0.09742266 0.038594548 -0.061066076
0000b0 bb d4 0f 3d 2a a6 b5 3d da 52 af bd 8c ea ce 3d
       0.035114985 0.08869584 -0.085607246 0.1010333
0000c0 50 77 a2 bd da 52 8f 3b 1d 11 77 bd 7b 7c 8d bd
       -0.07932913 0.0043738903 -0.060319055 -0.069085084
0000d0 a5 95 16 3d 77 b2 93 3d b1 b3 ce bc ea 5c fb ba
       0.036763806 0.07211774 -0.025232168 -0.0019177471
0000e0 bc 7b 41 3d e8 57 dd 3c 17 6f 92 3c 36 06 2c 3d
       0.047237143 0.027019456 0.017875237 0.04199811
0000f0 a1 c8 ed 3d ca 79 9d 3d 8b cb 8e 3d 29 e2 00 3d
       0.116105326 0.07689245 0.069724165 0.031465683

fc4.weight f4 [4, 64]
000000 35 f0 22 3d 2d 26 57 bb 54 c2 04 3d 2c 6e 02 bd
       0.03977986 -0.003282915 0.03241189 -0.03184335
000010 94 88 2e 3e 1f ec 10 3e dd 3d c1 3d 5c dd 74 bd
       0.17044288 0.14152573 0.094356276 -0.059781417
000020 53 a4 e2 3b cb f2 02 bd b1 95 b5 3c 3c 2d 96 3c
       0.0069165616 -0.031969827 0.022166105 0.018332116
000030 e2 d6 d9 bb b8 cd 9f bd 4f 8a 1b 3d c6 31 bf bd
       -0.0066479305 -0.078029096 0.0379737 -0.093356654
000040 ce 18 1d 3d 10 3b f2 3d 3b e5 07 3e ea 36 bd bd
       0.038353734 0.118276715 0.13271038 -0.0923899
000050 67 bb bd bd 68 bd 8c 3d 41 e6 73 bd 0e 8f 2d bc
       -0.0926426 0.06872064 -0.05954576 -0.010593189
000060 21 97 55 be a5 14 32 be 01 f7 56 bc c1 e6 9d 3d
       -0.20858432 -0.17390688 -0.013120414 0.077100284
000070 d4 98 96 bd 71 89 e3 3c f2 fb 3b be 5d 8e 8c bd
       -0.073533684 0.027775498 -0.18357828 -0.06863091
000080 61 10 d3 3d 8c 01 17 3e 4b 50 1a 3e a2 79 d6 3d
       0.103058584 0.14746684 0.15069692 0.10472418
000090 08 aa 0f 3e 07 9b d0 3d 08 1a fe 3c aa 64 29 3e
       0.14029706 0.10185819 0.031018272 0.16542307
0000a0 e5 88 fd 3d b9 c7 52 be ee 47 ca 3d ba 76 08 be
       0.12379626 -0.20584 0.09877001 -0.1332654
0000b0 54 fa 19 be c8 c9 6c be 84 43 40 bd 07 0e bb 3d
       -0.15036899 -0.23123848 -0.046939388 0.09133535
0000c0 14 82 56 3d cb b5 d3 3d 92 b5 a8 3d bd 8c a7 3d
       0.052370146 0.10337409 0.08237757 0.081811406
0000d0 4e b0 27 3e cf 24 c3 3d 51 80 b3 3d e1 9c 30 3e
       0.16375849 0.09528505 0.08764709 0.17247345
0000e0 6a 0f 66 3c 23 7d 34 be 13 77 18 3e e5 71 f0 3d
       0.014041761 -0.17625861 0.14889173 0.11740474
0000f0 1e 92 98 3d f6 5f b6 bd df 89 1e 3d 68 cc 9d 3d
       0.07449745 -0.08905022 0.038705703 0.07705003
000100 c1 97 53 3e f6 96 d1 3d 98 ed 62 3d e0 0b 57 3c
       0.20663358 0.10233872 0.05540237 0.01312539
000110 4c 98 ea 3c f3 17 b7 bd 08 1f 49 bd c7 f0 82 3d
       0.028637074 -0.08940115 -0.04910186 0.06393581
000120 99 27 c6 bd 96 4a 5b 3d c3 78 b4 3d 74 52 85 be
       -0.096755214 0.053537928 0.08812096 -0.2603947
000130 22 da 97 3d 24 68 da bd 60 4e 40 3d 53 b1 d4 3d
       0.074146524 -0.106643945 0.046949744 0.103853844
000140 40 83 86 3d 2a 26 d3 3b ea cd c9 3d 2b 9e 26 be
       0.06568003 0.0064437585 0.09853728 -0.16271274
000150 c7 b6 4e be 48 87 b0 bd 42 f0 a5 bd 59 05 c9 3d
       -0.20186912 -0.08619553 -0.08102466 0.09815473
000160 99 97 24 3e 10 3f 8d bd 16 69 fc 3d 2c 68 b5 bd
       0.16073455 -0.06896794 0.12324731 -0.0885776
000170 68 74 f9 3d c0 33 58 bc 50 66 8e bd 9a e9 8e bd
       0.12180406 -0.013195932 -0.06953108 -0.0697815
000180 11 10 90 be 9a 42 ef 3d ce 1c c7 bd 81 8a a2 3e
       -0.28137258 0.11682625 -0.09722291 0.31746295
000190 d8 e7 02 3e 99 ee 25 3e 68 28 97 bc 0b 86 50 bd
       0.12783754 0.16204299 -0.018451884 -0.050909083
0001a0 bc e4 6e bd 69 72 6f 3e 93 79 1d 3e 24 2f b4 3d
       -0.058323607 0.23383488 0.15378408 0.08798054
0001b0 3e 8b 7d bd d1 2a 28 be c8 c0 a8 bd a9 01 e3 3d
       -0.06190037 -0.16422583 -0.08239895 0.11084301
0001c0 d0 25 ea bd b0 5a 68 3d 7c 61 9a 3d 48 5e 46 bd
       -0.114329934 0.05672711 0.07538125 -0.048429757
0001d0 64 5b 90 3d aa 20 76 3c ec 5a 58 bc cd 1b cc bd
       0.070486814 0.015022436 -0.013205271 -0.0996624
0001e0 1b 38 49 3c c2 5a 81 3d fb 9e 49 3d 16 14 d6 bd
       0.012281443 0.06316139 0.04922388 -0.1045305
0001f0 ce e4 51 3d 2a 3d ed bd d8 ff 6a 3d 5d 12 43 bc
       0.051243596 -0.11583932 0.057372898 -0.011906234
000200 cb de 0f be 8d 7f 17 3e 50 49 85 bc 66 2d 39 bd
       -0.14049833 0.1479475 -0.01627031 -0.04520931
000210 c8 5e 9e 3d 59 d2 6d 3d 54 a0 be bd 47 09 24 bd
       0.07732922 0.05806193 -0.09307924 -0.04004791
000220 0c a8 20 bd a6 79 2e 3e ac 65 d3 3d 4b 3f 0a be
       -0.039222762 0.17038593 0.10322127 -0.13500707
000230 1e d0 9c bd a9 6a 3a 3e 01 6b 13 3e bd e9 1f bd
       -0.07656883 0.1820475 0.14396288 -0.03904127
000240 15 3d 81 bd 01 62 af 3c 67 43 73 3c 47 b5 3a 3d
       -0.063104786 0.021409037 0.014847613 0.045583036
000250 e1 dc 1d bd 53 5d a9 bd 93 8d e7 3d 24 bc 6d 3e
       -0.038540725 -0.08269753 0.113063 0.23216301
000260 ae db e5 3d 79 ee ec bd 75 03 c4 3d fa ec af bc
       0.11223541 -0.115689225 0.09570972 -0.021475304
000270 6d 69 3d 3d a5 f0 3f bd e4 48 de b8 20 a9 8c 3d
       0.04624312 -0.046860356 -0.00010599362 0.068681955
000280 a3 a0 41 3e 54 04 19 3e 78 d4 ef bc 6b 23 70 be
       0.18908934 0.14943057 -0.029276118 -0.23451011
000290 a1 7c c5 bc 47 de a8 3c 3c b8 a4 bd 3c 7c fe 3b
       -0.02410728 0.020613803 -0.080429524 0.0077662747
0002a0 5c da e3 bd 75 6f 40 be 75 b5 c2 3c 12 14 ff 3b
       -0.11125633 -0.18792517 0.023768166 0.007784375
0002b0 93 62 98 3c 3a 56 51 3d 74 fa 98 3d 16 b3 10 3e
       0.018601691 0.051107623 0.07469645 0.14130816
0002c0 58 78 ed bd f4 97 c6 bb 64 94 bb bd 61 9b 84 3d
       -0.115952194 -0.0060605947 -0.09159163 0.06474949
0002d0 82 fe 42 bb 0f 23 07 3e 97 92 a5 3d 18 40 3c bd
       -0.002975375 0.13196968 0.080846004 -0.045959562
0002e0 3b 65 e9 bc 22 d2 6e bb 73 8a ed bc b8 2f c2 bd
       -0.028490653 -0.0036441167 -0.028996682 -0.09481758
0002f0 d3 04 45 bc 1e fa c5 bd 4a a0 64 bd 22 d2 67 be
       -0.012025076 -0.09666847 -0.055816926 -0.22638753
000300 a7 cf 18 bd 2c f0 d4 3d f4 85 21 bd a2 00 8e 3d
       -0.037307408 0.10397372 -0.03943439 0.069337144
000310 5b 9c 83 3c 99 b9 35 bc 00 1f 62 bd b4 2f 32 3d
       0.016065767 -0.011091613 -0.055205345 0.043502524
000320 24 3a 00 3e eb ec 53 bd b1 42 c6 3c 13 72 08 3e
       0.12522179 -0.051739614 0.024201723 0.13324766
000330 ae 50 aa bd 01 d2 b7 bd c6 08 a1 3c 74 a6 08 3d
       -0.0831617 -0.08975602 0.019657504 0.033361867
000340 54 6b 71 3d 3c 64 21 3e 32 03 47 be 1a 3a 30 3c
       0.058940247 0.15760893 -0.19434813 0.01075604
000350 21 16 79 3d fc 92 b5 bd c3 5e c7 3d f7 af 69 bc
       0.06081212 -0.08865926 0.09734871 -0.014263145
000360 aa 62 79 3e 7b af 2b 3c 2a b8 8f bc 97 fc 73 bd
       0.24354044 0.0104788495 -0.017543871 -0.05956706
000370 c0 80 f2 3b c8 96 a7 3d af c0 b6 bd 79 a0 1a 3e
       0.007400602 0.08183056 -0.0892347 0.15100278
000380 28 6b 2c be ad 8b 43 3c 2e fc 78 3d f6 b3 dd bd
       -0.16837752 0.011935157 0.060787372 -0.108253404
000390 4a b2 09 3e 20 a1 0c 3e 70 b6 3f bd 5e bf 00 be
       0.13446918 0.1373334 -0.046804845 -0.12573001
0003a0 de 81 bf 3d 2c 20 20 3e 76 45 c0 bd ee 59 97 3e
       0.09350942 0.15637273 -0.093882486 0.29560798
0003b0 dd 35 53 3e 0f ee a0 be 10 3c 79 bc cc 7e d4 3d
       0.20626016 -0.31431624 -0.015212074 0.10375747
0003c0 6c 25 2b bd 4c 75 e4 3c 0c d6 2c 3e 94 2f bf 3d
       -0.041783735 0.027887963 0.16878527 0.09335247
0003d0 6a 6f 2f bd 41 02 a5 bd 6e 5d fd bd da 9f a0 bd
       -0.042830862 -0.080570705 -0.12371336 -0.07842989
0003e0 42 b4 69 3e 8f 38 56 3e a7 92 f2 bd f0 99 b5 bd
       0.22822669 0.20920013 -0.11844378 -0.08867252
0003f0 1d d4 18 be d1 6d ab bd e0 21 b5 3d 62 27 ce 3d
       -0.14924665 -0.08370555 0.08844352 0.100661054

fc4.bias f4 [4]
000000 8c 59 8f 3d ad 10 10 bd d5 51 d3 3d 54 d3 a8 bd
       0.069995016 -0.035172153 0.103183426 -0.08243433
